checkpoint_critic.pth (torch_old, 159804 bytes, 5 tensors)

fcs1.weight f4 [256, 24]
1.1717824 -0.12660784 -0.09522966 0.36153394 0.8217269 0.5550206 -0.13846745 0.39255473
1.2916937 -0.113556966 -0.059442952 -0.08904522 0.14800182 -0.9250083 -0.08553066 -0.13576967
1.1548972 -0.07872975 -0.0061118286 0.07374819 -0.18586197 0.059332356 0.0008016082 0.1317019
0.32424194 0.75361526 -0.14011547 -0.23738936 -0.6496793 0.6274823 -0.096777625 -0.25019568
0.4317603 1.0224191 -0.0069233296 0.19676213 0.38475668 -3.0813162 0.08737884 0.1752728
0.51733196 1.3690063 0.036488157 0.47486055 0.49265423 0.32509783 0.045958504 0.5701583
0.36151713 -0.32640663 0.056422893 0.6052535 0.9827966 0.877256 0.0889755 0.61294806
0.7818503 -0.23388849 0.25695667 0.49231243 0.7879082 -2.135692 0.2837242 0.38685513
1.0670928 0.01495568 0.035754826 -0.1362432 -0.6909377 -3.5229213 -0.051111136 -0.20661692
0.95994353 -0.010258319 -0.25590056 -1.0521345 0.19326876 0.099452116 -0.22465937 -0.981668
0.90255314 0.6395225 -0.008035311 1.1684518 0.282312 -1.4369302 -0.017610952 1.2267934
0.8031313 0.58900046 -0.013757416 0.59979707 -0.6050908 -3.795468 0.072503716 0.62394476
0.513901 2.6209855 -0.0861045 -0.65659636 0.53094745 -0.23800524 -0.006152413 -0.5863938
0.91350985 2.6390142 0.019871768 0.0994356 -0.090102255 -0.3777114 -0.0095175905 0.10401158
1.072487 2.6226099 0.040687803 -0.17561401 -0.39852303 -0.48887178 0.0073440433 -0.16385345
1.0130895 -0.71754855 -0.15319802 -0.49526575 -0.018914819 -0.05812287 -0.10456269 -0.45588583
1.0336864 -0.48428944 0.07682131 0.49289665 -0.48027244 -1.6622934 0.028028987 0.4413974
1.5969748 -0.44188604 -0.035298314 -0.0044627036 -0.32993433 -1.9421048 0.028594837 -0.05290965
2.294992 0.47682458 -0.16457422 0.7494384 1.2048544 -0.9391075 -0.113249436 0.738183
2.1767035 0.4913039 -0.09696487 -0.6252224 0.40772736 0.6019608 -0.04751158 -0.7259698
2.1658187 0.549409 0.053329132 0.39958584 0.30045044 -3.307686 0.017663391 0.3436049
0.2831043 0.7611743 0.019175721 -0.09210441 -0.93394417 -3.5798924 0.027138924 -0.02990577
0.3667143 0.7831089 0.019471552 0.15618284 -0.08904677 -0.71270925 0.01202414 0.11922291
0.1600069 0.7625368 0.033080067 0.57559144 0.63230133 3.5540383 -0.013347113 0.6647666
0.17394392 -1.1750094 0.02476521 0.069440044 0.62565523 -0.85397255 -0.007194142 0.065671325
0.14639996 -1.3609179 -0.057280753 -0.042609245 -0.5953669 -0.3828861 0.03387621 -0.1084617
0.4054566 -1.6048845 -0.06267278 -0.20743304 -0.86936826 1.46128 0.014529778 -0.20586528
1.1999145 -0.1124573 -0.25804552 0.34760302 0.37139168 0.13133097 -0.22592598 0.4568089
1.8488653 0.0542358 0.04502397 -0.23457365 0.49310413 -1.6802225 0.048038095 -0.17412293
2.5694013 0.18370526 0.10164334 -0.4432551 0.56156635 -2.1165907 0.1634633 -0.49685317
0.47574058 -0.82529646 -0.4269633 0.110908225 1.2878071 -1.143209 -0.43023732 0.04451719
0.92111474 -0.051982477 -0.057828024 0.30392495 0.96481794 -2.5581424 -0.038951583 0.26099887
00000000: f7fc 953f 7ca5 01be c507 c3bd fa1a b93e
00000010: b25c 523f d415 0e3f 69ca 0dbe effc c83e
00000020: 3856 a53f 8e90 e8bd 747a 73bd 575d b6bd
00000030: ca8d 173e 58cd 6cbf b32a afbd 3407 0bbe
00000040: acd3 933f 103d a1bd bc45 c8bb 4b09 973d
00000050: 9a52 3ebe 7c06 733d 0423 523a dddc 063e
00000060: 0a03 a63e eeec 403f 6e7a 0fbe 3216 73be
00000070: 6251 26bf aea2 203f 5933 c6bd a619 80be
00000080: b00f dd3e a1de 823f 19dd e2bb 037c 493e
00000090: d4fe c43e 4934 45c0 adf3 b23d b67a 333e
000000a0: de6f 043f 993b af3f 9b74 153d ec20 f33e
000000b0: 2d3d fc3e 3973 a63e fc3e 3c3d e5f5 113f
000000c0: c618 b93e c51e a7be b11b 673d e5f1 1a3f
000000d0: 8f98 7b3f d993 603f c938 b63d 2aea 1c3f
000000e0: 5727 483f 7780 6fbe d38f 833e 6010 fc3e
000000f0: 5ab4 493f 2daf 08c0 4c44 913e e011 c63e
00000100: 7f96 883f ab08 753c a773 123d 5683 0bbe
00000110: 4be1 30bf 8b77 61c0 e959 51bd 6393 53be
00000120: dcbe 753f 8212 28bc 6605 83be 58ac 86bf
00000130: 3fe8 453e 8dad cb3d 1b0d 66be 984e 7bbf
00000140: b90d 673f bfb7 233f 89a6 03bc d48f 953f
00000150: 338b 903e 54ed b7bf d844 90bc 9107 9d3f
00000160: 039a 4d3f bcc8 163f c966 61bc 4d8c 193f
00000170: 3be7 1abf f3e8 72c0 d47c 943d d8ba 1f3f
00000180: 048f 033f 3abe 2740 8e57 b0bd b316 28bf
00000190: 2cec 073f a5b7 73be 2e9a c9bb e71d 16bf
000001a0: c8db 693f 9ce5 2840 1eca a23c e4a4 cb3d
000001b0: 8887 b8bd 6363 c1be abef 1bbc 0604 d53d
000001c0: 4147 893f d7d8 2740 41a8 263d 29d4 33be
000001d0: 360b ccbe 674d fabe 4da6 f03b 33c9 27be
000001e0: ebac 813f 43b1 37bf f1df 1cbe 7993 fdbe
000001f0: 40f3 9abc 3f12 6ebd f724 d6bd de69 e9be
00000200: d64f 843f c9f4 f7be 7e54 9d3d f35c fc3e
00000210: 45e6 f5be 08c6 d4bf 0c9d e53c d7fe e13e
00000220: ac69 cc3f e33e e2be f794 10bd df3b 92bb
00000230: 27ed a8be e496 f8bf b83f ea3c cab7 58bd
00000240: 26e1 1240 5a22 f43e 2586 28be 32db 3f3f
00000250: ab38 9a3f 5969 70bf 52ef e7bd 90f9 3c3f
00000260: 1c4f 0b40 2f8c fb3e 8595 c6bd 930e 20bf
00000270: a4c1 d03e 1a1a 1a3f 819b 42bd 28d9 39bf
00000280: c69c 0a40 11a6 0c3f a66f 5a3d 8496 cc3e
00000290: a4d4 993e 21b1 53c0 d1b2 903c fbec af3e
000002a0: 0cf3 903e 52dc 423f 6716 9d3c 3da1 bcbd
000002b0: f716 6fbf f51c 65c0 7352 de3c f2fc f4bc
000002c0: fac1 bb3e d379 483f ce82 9f3c 65ee 1f3e
000002d0: 275e b6bd 1d74 36bf e600 453c 242b f43d
000002e0: d9d8 233e 9d35 433f f77e 073d f659 133f
000002f0: 80de 213f 5d75 6340 d9ad 5abc 252e 2a3f
00000300: 5b1e 323e b566 96bf 69e0 ca3c 9536 8e3d
00000310: f12a 203f f29d 5abf d6bc ebbb b07e 863d
00000320: dfe9 153e 8f32 aebf 399f 6abd 0887 2ebd
00000330: f769 18bf a609 c4be c8c1 0a3d 2b21 debd
00000340: 0298 cf3e db6c cdbf 965a 80bd 5469 54be
00000350: eb8e 5ebf 390b bb3f 4e0e 6e3c 59ce 52be
00000360: cc96 993f 0350 e6bd 8b1e 84be 06f9 b13e
00000370: 0d27 be3e a07b 063e 2459 67be dbe2 e93e
00000380: 9ea7 ec3f 5c26 5e3d 0e6b 383d 1334 70be
00000390: 2578 fc3e 8811 d7bf 98c3 443d 484d 32be
000003a0: 1271 2440 3b1d 3c3e 622a d03d 55f2 e2be
000003b0: d0c2 0f3f 3976 07c0 ec62 273e 8a63 febe
000003c0: 4594 f33e a146 53bf ef9a dabe da23 e33d
000003d0: ddd6 a43f ac54 92bf 1148 dcbe a857 363d
000003e0: 2dce 6b3f 94eb 54bd 14dd 6cbd 0d9c 9b3e
000003f0: 4ffe 763f 9bb8 23c0 b28b 1fbd a5a1 853e

fcs1.bias f4 [256]
-1.0080072 -0.7501321 -1.3079827 -2.2612333 -0.9578606 0.4946968 -0.9872058 -1.141889
-1.4196568 -0.5945346 -2.7085707 -2.276339 -1.1815614 -2.9487216 -1.2323356 -0.6281382
-1.0542263 -1.4873637 -1.0173471 -1.6967278 -0.43426675 -1.817074 -1.0281101 -0.5283337
0.14002265 -1.6107812 -1.7791595 -2.5335314 -0.45799938 -0.7657334 1.0897256 0.98855704
-2.0918531 -3.9008365 -1.4839376 -2.2294161 -1.7951837 -0.4766791 -0.7979938 -5.546962
-1.7920189 -2.2221425 -2.0860503 -0.5947663 -1.2365475 -2.4678845 0.37959936 -0.60724956
-1.1391997 -1.6161944 -1.408591 -1.1966912 -1.551777 -2.3960814 -1.5591973 1.3265467
-1.1791247 -2.7439995 -0.98680335 -2.043711 -3.5176468 0.90769595 -1.2481908 -1.011322
-1.8417639 -0.45236352 -1.8134693 -2.8580916 -2.9697106 -1.8299887 2.4768953 -1.8811666
-1.2779355 -1.4936112 -1.783834 -0.66945654 -2.46135 -1.6431099 2.1544616 -2.2254524
-2.1808844 -2.034957 -0.6268114 -1.5704622 -2.2171214 -0.20079881 -1.5708152 -2.1496048
-3.4650145 -0.59183955 -0.86734134 -1.7010841 -1.7801701 -0.8836985 -1.5295815 -0.7794399
-2.831258 -2.3373773 -0.9892778 -0.11886718 -2.0784934 -1.743524 -1.0718923 0.22569391
-2.0454502 -1.8186007 -1.3209699 -1.6777445 -1.995954 -0.44666925 -0.040860053 -1.967024
-0.53357816 -0.6885495 -1.7661124 -2.5536914 -2.9064088 -0.18207113 -0.39497194 -1.0773877
-1.9101682 2.5703166 0.8578367 -1.9418476 -1.9209111 -1.5327997 -2.219998 -0.23724796
-1.670372 0.77349544 -1.5066799 -3.2506752 -1.1373576 -0.72885096 -2.0154157 -1.6049415
-0.64262176 -1.1246244 -1.4381175 -0.32645944 -1.4978985 -1.8265138 -0.06393079 -0.93552643
2.6027672 2.9395747 -1.6904364 -1.3162531 -0.7024507 -0.87666345 0.6530946 0.9037064
-0.22468586 -0.9774794 -1.2062438 -0.99958766 -1.4553444 -0.20633586 -1.1765299 1.0367255
-1.7316222 -4.380939 -0.4627421 1.0856532 -0.51327455 -0.37260574 -1.959626 -1.3252879
-1.3974249 -1.8287145 0.017988322 0.86596054 -1.4436634 -1.1528565 -1.4932259 -1.1470699
2.3455784 -0.48302978 -2.391777 -0.6015806 -0.31458586 -0.36431873 -1.0693834 -2.3174365
-1.3445408 -2.2280962 -1.3737218 -0.68285066 -3.1145482 -1.3131915 -1.1511772 -1.4970154
-1.3079404 -2.2604594 -0.63697565 -2.4528146 -1.7041205 -1.0342748 -2.0467393 -1.0212868
0.3115797 -2.6007357 0.89192957 -2.7514417 -1.0346482 2.1642616 -1.0498059 -0.8290284
-1.8453127 1.7543898 -1.0740886 -0.17520149 -1.6002592 -0.30012533 -0.49597692 -0.37042704
-2.3024876 1.3395622 -1.4466934 0.12184659 -0.6469885 -1.9965369 -1.2316967 -2.3109484
-1.9664236 0.44828635 -0.5917541 -1.8097987 -2.7583895 -1.1509289 -0.879122 -1.7086262
-1.7514724 -2.6216595 -2.6249707 -2.4858832 -1.2895602 0.52116793 -1.5885175 -2.6038475
-3.502557 -3.122126 -1.8269895 -1.3748873 0.08249961 -0.9832613 -3.1560478 0.19084968
-1.9998982 -1.256822 -1.2616653 1.8478054 0.69074655 -1.5837842 -0.8528849 0.6405595
00000000: 6106 81bf a808 40bf fa6b a7bf 0cb8 10c0
00000010: 5a36 75bf e648 fd3e 85b9 7cbf 6b29 92bf
00000020: 50b7 b5bf 6b33 18bf 3959 2dc0 8aaf 11c0
00000030: 673d 97bf dbb7 3cc0 2cbd 9dbf aacd 20bf
00000040: e3f0 86bf ef61 bebf 6e38 82bf 602e d9bf
00000050: 3658 debe e195 e8bf 1d99 83bf e140 07bf
00000060: 1962 0f3e 142e cebf 80bb e3bf 6125 22c0
00000070: e57e eabe 1b07 44bf 217c 8b3f 1312 7d3f
00000080: ece0 05c0 4ea7 79c0 abf1 bdbf c1ae 0ec0
00000090: 94c8 e5bf 480f f4be 5249 4cbf b680 b1c0
000000a0: e060 e5bf 9537 0ec0 d981 05c0 9b42 18bf
000000b0: 3047 9ebf d2f1 1dc0 d95a c23e b574 1bbf
000000c0: 4cd1 91bf 75df cebf b64c b4bf 2d2d 99bf
000000d0: a1a0 c6bf 6659 19c0 c793 c7bf 48cc a93f
000000e0: 8fed 96bf b09d 2fc0 259f 7cbf 29cc 02c0
000000f0: 2021 61c0 c35e 683f b7c4 9fbf 0073 81bf
00000100: ebbe ebbf 319c e7be c31f e8bf f9ea 36c0
00000110: bd0f 3ec0 123d eabf 7485 1e40 11ca f0bf
00000120: 6493 a3bf a72e bfbf ac54 e4bf 8161 2bbf
00000130: c286 1dc0 6d51 d2bf b3e2 0940 d06d 0ec0
00000140: 9c93 0bc0 bc3c 02c0 b676 20bf e804 c9bf
00000150: 51e5 0dc0 349e 4dbe 7910 c9bf 2093 09c0
00000160: ccc2 5dc0 cc82 17bf 150a 5ebf 20bd d9bf
00000170: 9ddc e3bf 113a 62bf 54c9 c3bf 6089 47bf
00000180: 5533 35c0 9797 15c0 4f41 7dbf a370 f3bd
00000190: 0906 05c0 cb2b dfbf c433 89bf 4e1c 673e
000001a0: a8e8 02c0 e8c7 e8bf 8b15 a9bf 55c0 d6bf
000001b0: 6c7b ffbf d5b1 e4be df5c 27bd 71c7 fbbf
000001c0: 9498 08bf c844 30bf f90f e2bf ae6f 23c0
000001d0: 9a02 3ac0 db70 3abe c339 cabe d7e7 89bf
000001e0: 6480 f4bf 1180 2440 309b 5b3f 768e f8bf
000001f0: 6ae0 f5bf c832 c4bf 7214 0ec0 21f1 72be
00000200: c0ce d5bf cc03 463f e3da c0bf 100b 50c0
00000210: ef94 91bf fa95 3abf 92fc 00c0 b96e cdbf
00000220: dc82 24bf b1f3 8fbf 3c14 b8bf b125 a7be
00000230: 23bb bfbf 34cb e9bf 25ee 82bd a97e 6fbf
00000240: bd93 2640 fe21 3c40 3860 d8bf fb7a a8bf
00000250: cfd3 33bf 046d 60bf 3531 273f 4d59 673f
00000260: 0d14 66be 173c 7abf 3266 9abf fae4 7fbf
00000270: ba48 babf b549 53be 8898 96bf 6cb3 843f
00000280: cca5 ddbf a730 8cc0 88ec ecbe aff6 8a3f
00000290: f665 03bf 2ec6 bebe 06d5 fabf 09a3 a9bf
000002a0: d2de b2bf 5113 eabf 3f5c 933c 97af 5d3f
000002b0: f6c9 b8bf cd90 93bf 0722 bfbf 30d3 92bf
000002c0: f51d 1640 ae4f f7be e012 19c0 3001 1abf
000002d0: 6611 a1be fc87 babe 8ee1 88bf e150 14c0
000002e0: ea19 acbf 2199 0ec0 1ed6 afbf 4dcf 2ebf
000002f0: c254 47c0 a916 a8bf c659 93bf 339e bfbf
00000300: 976a a7bf 5eab 10c0 d610 23bf eafa 1cc0
00000310: 9f20 dabf 1e63 84bf c7fd 02c0 87b9 82bf
00000320: 6087 9f3e 7472 26c0 7f55 643f 9f17 30c0
00000330: 5a6f 84bf 4383 0a40 0a60 86bf 353b 54bf
00000340: 3533 ecbf d88f e03f bc7b 89bf 0568 33be
00000350: 4bd5 ccbf 07aa 99be b0f0 fdbe 9da8 bdbe
00000360: f55b 13c0 c676 ab3f 402d b9bf b48a f93d
00000370: 0aa1 25bf 858e ffbf 3da8 9dbf 94e6 13c0
00000380: c5b3 fbbf ca85 e53e 327d 17bf 7ca7 e7bf
00000390: 7489 30c0 a351 93bf 240e 61bf 43b4 dabf
000003a0: 3f30 e0bf 45c9 27c0 85ff 27c0 b618 1fc0
000003b0: 4f10 a5bf 436b 053f 8b54 cbbf 70a5 26c0
000003c0: e529 60c0 ead0 47c0 cbda e9bf 4ffc afbf
000003d0: 8ef5 a83d 03b7 7bbf b0fc 49c0 196e 433e
000003e0: aafc ffbf 8bdf a0bf 407e a1bf e384 ec3f
000003f0: c4d4 303f 71b9 cabf aa56 5abf b5fb 233f

fc2.weight f4 [128, 258]
-0.04759881 0.052208185 -0.044503275 0.05136156 0.007339887 -0.11210732 -0.028873403 0.04718272
-0.051660664 0.077737056 -0.15014288 0.030696392 -0.069366306 -0.08654405 -0.0943823 -0.049773984
0.021399109 -0.12287647 -0.016699592 -0.1700682 -0.01902427 -0.028852673 -0.030174391 0.018954607
-0.023407731 0.042595442 -0.092213154 0.009994183 0.047142804 -0.03320955 -0.07746542 -0.08026451
0.046783857 -0.09647167 0.07109456 -0.03780304 0.051087085 0.043339852 0.06468409 -0.08297216
-0.11213936 -0.08814935 0.011852133 -0.047967948 -0.039930355 -0.098068856 0.031549275 -0.05537448
-0.01187019 -0.046802573 -0.0038308382 -0.012891951 -0.047301356 -0.053550366 -0.087416954 -0.042357296
0.02217942 -0.028871104 -0.05946096 0.0070453654 0.014553242 -0.09975725 0.047865737 -0.052213553
-0.00716312 -0.15373252 -0.1308246 -0.09941563 -0.032471124 -0.02775783 -0.1366524 0.0033889231
0.045841817 0.01124847 -0.0047651962 0.043102186 -0.10012019 0.061472673 -0.11094224 -0.07253829
-0.055848908 -0.07477571 -0.0009504643 0.044979453 0.035202663 0.058676176 -0.0053200508 0.0357961
-0.0134901535 -0.055520505 -0.019310651 -0.016009701 0.052454527 -0.0147279175 -0.11106115 -0.009568316
-0.06429488 -0.043421615 -0.07911185 -0.03230108 0.025669027 -0.052204426 -0.041182373 -0.07114831
-0.061788097 -0.033358734 -0.054189056 -0.04204058 0.027159294 -0.0045423824 -0.07021971 0.050813794
-0.12035979 0.03267284 -0.09997256 -0.044154722 -0.031508602 0.052015714 0.0027878403 0.02171935
-0.08025871 -0.086048186 -0.05414998 -0.011376288 -0.034901813 -0.057163056 0.009634977 -0.007489444
-0.09134825 -0.020226227 0.014263235 0.022791933 0.019081078 0.0039532455 -0.10946047 -0.04639347
0.019510387 -0.022275586 -0.047576353 0.035378333 0.022475794 -0.053929705 -0.093205616 -0.1338677
0.04055379 -0.043471977 0.033341132 0.014668221 0.0015712801 -0.10188096 -0.0117311 -0.021880021
-0.08150744 -0.053329945 -0.08397761 0.020962385 0.0018129057 -0.02260592 -0.07790667 -0.010302119
-0.11581023 0.0147024095 0.01622419 0.018066352 0.06245192 0.0045004715 -0.09797907 0.020769278
0.060848877 -0.0021277785 -0.018485866 -0.058500312 -0.05021768 -0.061524328 -0.09594605 0.007182674
-0.11471697 -0.04024611 -0.10338602 -0.10680704 -0.08520984 0.009202149 -0.018088141 -0.0667814
-0.021611294 -0.012153159 0.0012098339 -0.037360243 -0.112928264 -0.074300215 0.017275142 0.074370585
-0.016027335 0.021625023 -0.0063136895 0.016159369 0.016632393 -0.00075133657 -0.04731107 -0.010201563
0.019183002 -0.013014385 -0.010214318 -0.08441848 0.051811896 0.05567179 -0.085651934 -0.04700849
-0.030407581 0.020091806 -0.0031915542 -0.10963802 -0.11498736 -0.07016204 -0.093311526 -0.0987146
0.06543158 -0.012679743 -0.11504741 -0.017314278 -0.09701586 -0.0055740336 0.011466742 0.06499491
-0.047093723 -0.087522194 -0.026325 0.008274791 0.006456464 0.01359014 -0.050138574 -0.026988106
-0.035971228 -0.038255986 0.004328485 -0.036077976 -0.0028875128 0.04454793 -0.10981829 0.06028683
0.04369458 -0.12148556 0.017606115 -0.055452257 -0.04325822 -0.032677907 0.025673922 0.038182013
0.0097147655 -0.0450559 -0.08807378 -0.082189314 -0.06739543 -0.004689479 -0.08607319 -0.008835303
00000000: f8f6 42bd 40d8 553d 1149 36bd 8060 523d
00000010: 6f83 f03b 8698 e5bd ea87 ecbc ab42 413d
00000020: 229a 53bd 9b34 9f3d 0ebf 19be 0077 fb3c
00000030: ec0f 8ebd 023e b1bd 824b c1bd cedf 4bbd
00000040: 2f4d af3c a9a6 fbbd 95cd 88bc 5c26 2ebe
00000050: c9d8 9bbc 715c ecbc 4930 f7bc b146 9b3c
00000060: 92c1 bfbc 8f78 2e3d 40da bcbd a4be 233c
00000070: d018 413d bd06 08bd 31a6 9ebd b861 a4bd
00000080: 6ea0 3f3d f092 c5bd 069a 913d 5cd7 1abd
00000090: b140 513d 2185 313d 1879 843d 4fed a9bd
000000a0: 52a9 e5bd a587 b4bd 732f 423c 0a7a 44bd
000000b0: 038e 23bd 53d8 c8bd d039 013d 5ad0 62bd
000000c0: 2f7b 42bc 0eb4 3fbd cd0e 7bbb c338 53bc
000000d0: 11bf 41bd a157 5bbd a907 b3bd d87e 2dbd
000000e0: 9db1 b53c 1883 ecbc 568d 73bd cfdc e63b
000000f0: b970 6e3c 874d ccbd dd0e 443d e1dd 55bd
00000100: 9bb8 eabb 0f6c 1dbe e2f6 05be 6c9a cbbd
00000110: 7100 05bd 6464 e3bc 9bee 0bbe b218 5e3b
00000120: a1c4 3b3d 814b 383c 5d25 9cbb eb8b 303d
00000130: d00b cdbd c5ca 7b3d af35 e3bd f48e 94bd
00000140: d3c1 64bd 0224 99bd 9428 79ba 603c 383d
00000150: ab30 103d 6e56 703d d253 aebb ee9e 123d
00000160: ce05 5dbc 7869 63bd 5f31 9ebc c726 83bc
00000170: 8fda 563d 5d4d 71bc 0774 e3bd 6dc4 1cbc
00000180: 09ad 83bd ddda 31bd 6505 a2bd 234e 04bd
00000190: da47 d23c 4fd4 55bd d9ae 28bd 35b6 91bd
000001a0: 8415 7dbd 2ba3 08bd 58f5 5dbd be32 2cbd
000001b0: 2b7d de3c 44d8 94bb 5acf 8fbd 2022 503d
000001c0: 327f f6bd f5d3 053d 6abe ccbd 95db 34bd
000001d0: 2a0f 01bd 6e0e 553d 33b4 363b c7ec b13c
000001e0: ae5e a4bd 083a b0bd 5fcc 5dbd 9c63 3abc
000001f0: 34f5 0ebd cf23 6abd 06dc 1d3c 036a f5bb
00000200: cb14 bbbd 79b1 a5bc 58b0 693c 26b6 ba3c
00000210: ec4f 9c3c 3a8a 813b d02c e0bd 1407 3ebd
00000220: 3fd4 9f3c 4a7b b6bc 6cdf 42bd dfe8 103d
00000230: 281f b83c 65e5 5cbd 96e2 bebd 9d14 09be
00000240: bb1b 263d ac0f 32bd b690 083d fa52 703c
00000250: 69f3 cd3a f7a6 d0bd cd33 40bc bb3d b3bc
00000260: 5fed a6bd 8070 5abd 74fc abbd 4fb9 ab3c
00000270: 059f ed3a 0d30 b9bc 888d 9fbd 38ca 28bc
00000280: ea2d edbd 60e2 703c 98e8 843c e3ff 933c
00000290: 96cd 7f3d b178 933b 40a9 c8bd 5524 aa3c
000002a0: ac3c 793d 3372 0bbb ac6f 97bc 069e 6fbd
000002b0: 0eb1 4dbd ef00 7cbd 5d7f c4bd a35c eb3b
000002c0: bbf0 eabd 1bd9 24bd 0dbc d3bd a6bd dabd
000002d0: 7f82 aebd 9cc4 163c 952d 94bc b0c4 88bd
000002e0: 2b0a b1bc 0b1e 47bc 4a93 9e3a 0e07 19bd
000002f0: ef46 e7bd b62a 98bd 9984 8d3c 9b4f 983d
00000300: c24b 83bc f626 b13c 11e3 cebb a760 843c
00000310: a840 883c 58f5 44ba 41c9 41bd 7524 27bc
00000320: ac25 9d3c 493a 55bc f459 27bc 99e3 acbd
00000330: b638 543d 1a08 643d 486a afbd f98b 40bd
00000340: 5219 f9bc 9297 a43c 6529 51bb e689 e0bd
00000350: 7e7e ebbd 1eb1 8fbd 1d1a bfbd e12a cabd
00000360: fe00 863d b2be 4fbc fa9d ebbd acd6 8dbc
00000370: 40b0 c6bd 62a6 b6bb 00df 3b3c 0d1c 853d
00000380: 59e5 40bd d63e b3bd 87a7 d7bc fd92 073c
00000390: bf90 d33b 2ea9 5e3c 1b5e 4dbd 2916 ddbc
000003a0: 9156 13bd 4fb2 1cbd f7d5 8d3b 80c6 13bd
000003b0: 6d3c 3dbb e477 363d 69e8 e0bd 53ef 763d
000003c0: 17f9 323d 6ccd f8bd b33a 903c e821 63bd
000003d0: 882f 31bd 45d9 05bd 1e52 d23c be64 1c3d
000003e0: ae2a 1f3c 898c 38bd 0760 b4bd df52 a8bd
000003f0: 9d06 8abd 33aa 99bb 2447 b0bd f2c1 10bc

fc2.bias f4 [128]
-0.051701587 -1.6854208 -1.7972711 -0.5031315 -0.38448885 -0.124487184 -1.4513184 -0.14935583
-0.09638992 -0.15538909 0.46125758 -0.15904488 -0.7937275 -0.38880032 -1.1556289 -0.7027681
-0.22441751 -1.1331527 -1.3462746 -0.09203935 2.5419137 -2.2692564 -2.188861 1.0695317
-0.7423333 -0.085420035 -0.799294 -0.754452 -1.4565164 -0.05162797 -0.84049606 -0.11057038
1.1402974 0.28652212 -1.7957004 -0.02019933 -1.4862161 -3.2589467 4.389572 -0.18167627
-0.052711196 -0.9936178 -3.8077905 -1.0161234 -0.10451893 -0.07636127 0.06441225 -0.6013869
-0.0782951 -1.1838077 -4.1912546 -0.81156045 0.25875205 -0.09307871 -0.045995742 -0.32263842
-0.5570513 -0.03511202 -0.015363273 -2.5460045 -0.15299623 -0.51526755 -0.07734504 2.0614533
-1.2332456 -0.106039315 -2.2271407 0.36677718 -0.37750253 0.11051973 -0.1212073 -0.9560889
0.86176455 -0.057325985 -0.43956488 -0.1106939 -0.09163977 -0.088002004 -0.15421717 -1.0394512
-0.7662405 -0.88445085 -3.2526193 -1.3951322 -0.10707234 -0.59158325 -1.2660431 0.7395534
-1.8324649 1.4329292 -0.1647809 -0.008264754 -0.44138315 -0.043530326 -0.15505055 0.14570974
-0.46871942 -0.030726885 0.62826145 0.5279899 -0.082536444 -0.05053447 -0.14521314 -1.1063004
-1.2477399 -0.26548815 0.6988766 -1.5721703 -0.7656871 -0.3080489 1.7046754 -1.7702163
-1.710888 -0.24492 -1.202808 -0.17827998 -0.099554054 -0.11512691 -0.18182854 -0.19887596
-0.1461305 -0.46142262 -1.2827517 -0.057617277 -0.020824192 -0.058492746 -1.096509 0.8284427
00000000: 0bc5 53bd debb d7bf fb0c e6bf 3acd 00bf
00000010: b9db c4be 23f3 febd cdc4 b9bf bcf0 18be
00000020: 1468 c5bd 511e 1fbe f429 ec3e a9dc 22be
00000030: ba31 4bbf d610 c7be a6eb 93bf 9ce8 33bf
00000040: b4cd 65be 260b 91bf ba52 acbf 207f bcbd
00000050: b7ae 2240 7f3b 11c0 4c16 0cc0 6ae6 883f
00000060: 8e09 3ebf b3f0 aebd 889e 4cbf c423 41bf
00000070: 216f babf da77 53bd c02a 57bf b972 e2bd
00000080: 44f5 913f 07b3 923e 83d9 e5bf 1179 a5bc
00000090: 543c bebf 9592 50c0 6077 8c40 5809 3abe
000000a0: b2e7 57bd bc5d 7ebf d7b2 73c0 5510 82bf
000000b0: 050e d6bd 4c63 9cbd 92ea 833d 7ef4 19bf
000000c0: 2e59 a0bd 0387 97bf c21e 86c0 6dc2 4fbf
000000d0: 267b 843e 0da0 bebd 0866 3cbd dd30 a5be
000000e0: ea9a 0ebf 9fd1 0fbd 3db6 7bbc bdf1 22c0
000000f0: 0bab 1cbe 93e8 03bf 1467 9ebd daee 0340
00000100: feda 9dbf 242b d9bd 7989 0ec0 38ca bb3e
00000110: 0348 c1be 2b58 e23d 883b f8bd 3ec2 74bf
00000120: 9a9c 5c3f a7ce 6abd a60e e1be 7cb3 e2bd
00000130: a2ad bbbd 653a b4bd 1beb 1dbe bd0c 85bf
00000140: 5628 44bf 5f6b 62bf ea2a 50c0 b193 b2bf
00000150: be48 dbbd 0072 17bf b30d a2bf 5f53 3d3f
00000160: 368e eabf 396a b73f 53bc 28be e468 07bc
00000170: f9fc e1be db4c 32bd 92c5 1ebe ef34 153e
00000180: fefb efbe f3b6 fbbc bed5 203f 592a 073f
00000190: de08 a9bd 3bfd 4ebd c1b2 14be 409b 8dbf
000001a0: f1b5 9fbf 10ee 87be 94e9 323f e03c c9bf
000001b0: 1204 44bf 96b8 9dbe ce32 da3f 7396 e2bf
000001c0: 61fe dabf 4fcc 7abe 9df5 99bf 078f 36be
000001d0: ffe2 cbbd a8c7 ebbd 4331 3abe 24a6 4bbe
000001e0: 3ca3 15be 963f ecbe 3531 a4bf 1800 6cbd
000001f0: 7f97 aabc 1796 6fbd 685a 8cbf d214 543f

fc3.weight f4 [1, 128]
0.009094228 -0.03633617 0.015317988 -0.009303705 -0.10724281 -0.018008571 0.03696187 0.022101551
-0.022506693 0.009777838 0.01313048 -0.020477392 0.017943257 -0.0223958 0.03047797 0.004073527
-0.22241798 -0.031153206 0.0358587 -0.0049029663 -0.025974132 -0.040146742 0.04130395 0.016457422
0.054125033 0.008882394 -0.014915032 0.0133282505 -0.022078859 0.014253668 0.0057628425 0.012421049
0.010056406 -0.022859357 0.027189028 0.01687499 -0.031173203 -0.046962507 -0.02251928 0.00021701324
-0.069389306 -0.019170633 -0.023681885 -0.021889323 0.009302673 0.028760621 0.005869495 -0.054262698
0.0039679226 -0.03829957 0.01889031 -0.009908381 0.025850274 0.0055196644 0.010189245 0.25348663
-0.009865053 -0.061273947 -0.0016521902 -0.019069012 0.008866583 0.010972429 -0.023478767 -0.018329473
-0.026760718 0.0039052137 -0.038178317 -0.022998195 0.024499634 -0.021501187 0.030193442 -0.013453704
-0.02793897 -0.0029285618 0.019568456 0.011435112 0.0074233063 0.0145484535 -0.030208815 -0.0028782752
0.016582338 -0.010298777 -0.03332269 0.00299062 0.011051055 0.0010883135 -0.025799723 -0.018960116
-0.0211978 0.030677501 -0.01677975 -0.0064392244 0.048195012 -0.023998717 -0.020017266 0.11721499
-0.16826755 -0.0026252184 -0.027155878 0.022293739 0.028566297 -0.015073332 -0.015918609 0.0126968855
-0.008081074 0.010945143 -0.030341836 -0.026831647 0.015189739 -0.07135401 0.016203707 -0.038709823
-0.033663392 -0.01973328 -0.021157296 -0.025676643 0.0141773615 0.029558588 -0.008032633 0.026107104
0.003457999 0.010357849 0.009733425 0.001955854 -0.005524097 0.006864794 -0.029314222 0.019922346
00000000: f5ff 143c 3cd5 14bd 4cf8 7a3c 916e 18bc
00000010: 1ea2 dbbd b686 93bc 5465 173d 500e b53c
00000020: f55f b8bc 3a33 203c 3a21 573c 34c0 a7bc
00000030: bdfd 923c 6677 b7bc f0ac f93c 397b 853b
00000040: 8ac1 63be 0235 ffbc 92e0 123d 10a9 a0bb
00000050: b4c7 d4bc e970 24bd 552e 293d b7d1 863c
00000060: 36b2 5d3d 7687 113c 2e5e 74bc bc5e 5a3c
00000070: b9de b4bc 3788 693c 3ad6 bc3b a881 4b3c
00000080: a0c3 243c 8c43 bbbc 86bb de3c 6b3d 8a3c
00000090: f25e ffbc c25b 40bd 5a7a b8bc 0c8e 6339
000000a0: fb1b 8ebd bb0b 9dbc 8300 c2bc 3d51 b3bc
000000b0: 3d6a 183c 659b eb3c e554 c03b 9042 5ebd
000000c0: 5905 823b 03e0 1cbd dabf 9a3c c356 22bc
000000d0: f4c3 d33c 4dde b43b cbf0 263c 00c9 813e
000000e0: 08a1 21bc 64fa 7abd 4e8e d8ba 9e36 9cbc
000000f0: 2545 113c b4c5 333c 8b56 c0bc b127 96bc
00000100: 4b39 dbbc 9dee 7f3b de60 1cbd b666 bcbc
00000110: 75b3 c83c 4223 b0bc 3d58 f73c ed6c 5cbc
00000120: 44e0 e4bc 1ded 3fbb 074e a03c 565a 3b3c
00000130: 353f f33b a35c 6e3c 7a78 f7bc 72a1 3cbb
00000140: afd7 873c 34bc 28bc 5f7d 08bd 47fe 433b
00000150: 7c0f 353c bea5 8e3a f159 d3bc 3f52 9bbc
00000160: 02a7 adbc 624f fb3c b075 89bc 2100 d3bb
00000170: 2268 453d f598 c4bc 40fb a3bc 6a0e f03d
00000180: 544e 2cbe db0b 2cbb 0176 debc 5ca1 b63c
00000190: de03 ea3c 23f6 76bc be67 82bc 9906 503c
000001a0: 7b66 04bc 4253 333c 718f f8bc 0bce dbbc
000001b0: 62de 783c 0d22 92bd a3bd 843c 318e 1ebd
000001c0: a0e2 09bd b0a7 a1bc 1152 adbc d357 d2bc
000001d0: 2a48 683c da24 f23c 4e9b 03bc 91de d53c
000001e0: 999f 623b f8b3 293c f278 1f3c c92d 003b
000001f0: 7c03 b5bb 11f2 e03b 6124 f0bc 3034 a33c
