checkpoint_actor-t6.pth (torch_old, 159294 bytes, 6 tensors)

fc1.weight f4 [256, 24]
-0.0317232 0.15585949 -0.040835388 -0.16727704 -0.26392892 -0.15537377 -0.049608603 -0.12540057
0.05669759 0.26170084 -0.03184739 -0.037627306 -0.1443291 -0.106773116 -0.0012051036 -0.020740815
0.050533712 0.24512212 -0.04748147 0.09609079 0.021327833 -0.055214938 -0.051494233 0.077582754
0.019121291 -0.25934228 0.038999196 -0.08280648 -0.517796 0.044494826 -0.03503846 -0.039967265
0.054704286 -0.21531828 0.048997093 0.040102832 0.05081254 0.16545776 -0.026441587 0.013661442
-0.05291837 -0.10320286 -0.01621256 0.058221165 0.5194762 0.15736808 0.03552049 0.05720148
-0.04722236 0.12605752 -0.082962394 0.035109837 0.027608132 0.033236887 -0.054956775 0.05382772
-0.01766386 0.039071776 -0.00989733 0.1636363 0.13959624 -0.07862251 -0.038229387 0.08958794
-0.038676914 0.10682125 -0.005150193 0.13814801 0.1815377 -0.44615883 0.069735646 0.16083264
0.0463179 -0.09770583 -0.101664625 -0.054321177 0.022160947 0.13521802 -0.15991855 -0.046803556
0.028565992 -0.04772379 -0.14784975 0.04594615 0.013432426 0.0010517144 -0.13472821 -0.012962638
0.07072376 -0.100668445 -0.0948253 -0.025472263 0.04732764 -0.07048245 -0.037363913 -0.014360143
-0.020004869 0.3885897 -0.037784897 0.16506255 0.04435785 0.2220735 0.014070766 0.16137265
-0.01779288 0.26100904 -0.058571305 0.038976464 0.08321032 0.019445177 -0.023283187 -0.00026226914
-0.07545983 0.28818566 0.011388713 -0.1256108 0.22486043 -0.31105134 -0.0026205124 -0.07077251
-0.072734006 0.10425742 -0.15872349 0.009808779 0.1300632 0.06475133 -0.10365937 -0.05409212
-0.06249234 0.15422027 0.05615274 -0.003675126 0.019242514 -0.06031045 0.08717091 -0.07363487
0.022594223 0.15807708 0.015217374 -0.048677895 -0.055439293 -0.20127353 -0.031510923 -0.06608155
-0.07117849 0.020569684 0.030084988 -0.05813594 0.3233999 0.055260394 0.08804096 -0.02210097
-0.020314042 0.005413921 -0.017609559 0.019726662 0.08309458 0.14328796 -0.030416362 -0.009002278
0.009717423 -0.047169033 0.0019694422 -0.020117447 -0.084464006 0.19922785 -0.019524507 -0.06477145
0.096192054 -0.33157417 -0.0780336 -0.06271383 -0.19961591 0.2410363 0.01726619 -0.14543073
0.11315345 -0.34832177 -0.044606406 0.032228507 0.057911653 0.26741916 -0.036913548 -0.03455083
0.03777607 -0.19287533 0.07587952 0.065001965 0.2866114 0.10153938 -0.029576033 0.16354503
0.08837024 0.11944117 0.18438753 -0.3584281 -0.1381777 -0.10213002 0.11401488 -0.2810567
0.10003002 -0.04370031 -0.028942198 -0.06456412 0.06579658 -0.22898032 0.041520957 -0.012456518
0.040389866 -0.078444585 0.020749567 0.18349497 0.1679085 -0.2610516 0.07909237 0.22343302
-0.013323736 -0.21478274 -0.013740504 -0.2827659 0.05203335 0.36710235 0.010403379 -0.2751937
-0.036086597 -0.30046165 -0.076932654 -0.051931027 0.09982211 0.19652753 -0.006725689 -0.15919076
-0.10871884 -0.29432485 0.10575075 0.046925385 0.10203045 -0.14108764 0.11032674 0.0037345688
0.05389023 -0.107669786 -0.032391276 0.023679035 0.13431883 -0.05690548 -0.020630412 -0.027249508
-0.017174264 -0.08439529 0.011329583 0.081331424 -0.00428656 0.12861475 0.050704896 0.02233666
00000000: 30f0 01bd a199 1f3e 0243 27bd ac4a 2bbe
00000010: b121 87be 4d1a 1fbe 6432 4bbd 0269 00be
00000020: bb3b 683d a7fd 853e 6972 02bd 171f 1abd
00000030: 02cb 13be ddab dabd 91f4 9dba a4e8 a9bc
00000040: 70fc 4e3d 4b01 7b3e ee7b 42bd 40cb c43d
00000050: b5b7 ae3c 0f29 62bd 9eeb 52bd b5e3 9e3d
00000060: 41a4 9c3c 83c8 84be 9fbd 1f3d 7296 a9bd
00000070: 478e 04bf 3540 363d 7d84 0fbd b7b4 23bd
00000080: 9a11 603d 657c 5cbe 2db1 483d de42 243d
00000090: cf20 503d c26d 293e 079c d8bc 3ed4 5f3c
000000a0: efc0 58bd 055c d3bd 34d0 84bc 5179 6e3d
000000b0: 64fc 043f 1925 213e ef7d 113d 194c 6a3d
000000c0: 3c6c 41bd 3915 013e 30e8 a9bd 55cf 0f3d
000000d0: 732a e23c 6723 083d 5b1a 61bd 757a 5c3d
000000e0: cdb3 90bc ba09 203d 6928 22bc 4690 273e
000000f0: 51f2 0e3e d704 a1bd 6b96 1cbd e279 b73d
00000100: af6b 1ebd 19c5 da3d f3c2 a8bb ac76 0d3e
00000110: 05e5 393e ee6e e4be 90d1 8e3d 50b1 243e
00000120: d7b7 3d3d ff19 c8bd 8b35 d0bd e27f 5ebd
00000130: e08a b53c 9876 0a3e b0c1 23be 16b5 3fbd
00000140: 3a03 ea3c 057a 43bd ed65 17be 0832 3c3d
00000150: ae13 5c3c aed9 893a 31f6 09be 3f61 54bc
00000160: 9ed7 903d 422b cebd c433 c2bd 35ab d0bc
00000170: a1da 413d 1a59 90bd e70a 19bd ce46 6bbc
00000180: 40e1 a3bc 3bf5 c63e 56c4 1abd 2806 293e
00000190: 94b0 353d 3c67 633e 1289 663c df3e 253e
000001a0: 60c2 91bc faa2 853e 77e8 6fbd c9a5 1f3d
000001b0: 2c6a aa3d 7e4b 9f3c 62bc bebc 2b81 89b9
000001c0: af8a 9abd 128d 933e b997 3a3c 1ea0 00be
000001d0: d041 663e 1f42 9fbe e7bc 2bbb 2df1 90bd
000001e0: 91f5 94bd ea84 d53d 6988 22be 00b5 203c
000001f0: 4a2f 053e 589c 843d 5d4b d4bd b38f 5dbd
00000200: f8f7 7fbd ebeb 1d3e 6a00 663d 62da 70bb
00000210: 7aa2 9d3c 1708 77bd a986 b23d e1cd 96bd
00000220: 8517 b93c f5de 213e 4b52 793c 7962 47bd
00000230: 5014 63bd a61a 4ebe 9911 01bd c455 87bd
00000240: 07c6 91bd c181 a83c cb74 f63c f41f 6ebd
00000250: ac94 a53e b958 623d d24e b43d 180d b5bc
00000260: a269 a6bc 4367 b13b ec41 90bc cf99 a13c
00000270: 7e2d aa3d 14ba 123e bc2b f9bc 4a7e 13bc
00000280: d335 1f3c 5134 41bd c211 013b 58cd a4bc
00000290: 77fb acbd 6302 4c3e dcf1 9fbc e5a6 84bd
000002a0: 5700 c53d 17c4 a9be 14d0 9fbd 1c70 80bd
000002b0: 1d68 4cbe 38d2 763e d371 8d3c cbeb 14be
000002c0: ffbc e73d 3b57 b2be 35b5 36bd 0a02 043d
000002d0: c534 6d3d 2aeb 883e a932 17bd 2c85 0dbd
000002e0: 15bb 1a3d 1c81 45be b966 9b3d c01f 853d
000002f0: bbbe 923e e1f3 cf3d 7049 f2bc 5978 273e
00000300: 75fb b43d 929d f43d 16d0 3c3e e383 b7be
00000310: 747e 0dbe 8b29 d1bd a280 e93d aae6 8fbe
00000320: 8adc cc3d 19ff 32bd 3018 edbc 313a 84bd
00000330: 5bc0 863d d179 6abe e111 2a3d 6c16 4cbc
00000340: d86f 253d 8ea7 a0bd fffa a93c 1be6 3b3e
00000350: 35f0 2b3e 8ea8 85be 2efb a13d a0cb 643e
00000360: cd4b 5abc 02f0 5bbe da1f 61bc b1c6 90be
00000370: ec20 553d d7f4 bb3e ef72 2a3c 30e6 8cbe
00000380: 8acf 13bd 1cd6 99be de8e 9dbd a1b5 54bd
00000390: 896f cc3d 833e 493e 2b63 dcbb e702 23be
000003a0: fca7 debd bfb1 96be d993 d83d d534 403d
000003b0: 57f5 d03d 4779 10be fcf2 e13d abbf 743b
000003c0: 00bc 5c3d fa81 dcbd b7ac 04bd 89fa c13c
000003d0: e08a 093e b815 69bd 1c01 a9bc 5c3a dfbc
000003e0: 0bb1 8cbc 70d7 acbd b79f 393c 1791 a63d
000003f0: 4676 8cbb 96b3 033e f0af 4f3d 5ffb b63c

fc1.bias f4 [256]
0.07279409 0.24509116 -0.008971825 0.13092501 -0.1206005 0.08503541 0.15156128 0.09752284
0.13514395 0.34389946 0.13032773 -0.33604178 -0.0025142755 -0.1439237 0.03441513 -0.12403383
0.035167392 -0.10737127 0.20882632 -0.18894634 -0.5860023 0.28494734 0.08651696 0.20472546
0.1709526 0.13722368 -0.26166958 -0.019414403 0.11324739 0.046868216 0.0014298946 -0.0018399073
-0.18918642 -0.21958941 -0.20284417 0.16488257 -0.25616577 -0.013334496 -0.18363082 -0.189253
-0.33351535 -0.079623714 -0.04253207 -0.06184082 -0.45633817 -0.07421498 0.25885028 -0.1925355
0.048318394 -0.0697416 -0.14072599 -0.19715394 0.017285107 -0.12546621 -0.123697154 0.08095841
0.03497758 0.133558 0.12821816 -0.21352303 0.05856257 0.077217214 -0.20619023 0.035081234
-0.20946178 -0.408905 -0.2296093 0.07890082 -0.074545234 0.19091944 -0.10730007 -0.11704146
-0.25593567 -0.060914762 -0.109465815 0.18723878 -0.09168963 -0.21187843 -0.015911035 0.13863662
-0.2290128 -0.048857264 -0.034512386 -0.24589163 0.11045606 -0.43413708 -0.03041779 -0.19704762
-0.31216934 0.0638567 -0.13572003 -0.10583914 -0.2008901 0.07223329 -0.23841539 0.21651232
0.19980328 0.010111417 -0.07862922 0.018152304 0.1204104 0.2692888 -0.18945584 0.116094135
-0.20887135 0.022702519 0.11899305 -0.24461794 -0.20625745 -0.22924729 0.0032455937 -0.01584579
-0.20377856 -0.28089646 0.21564446 -0.48948178 -0.05441416 0.15963474 -0.004312353 0.10350484
0.031958666 0.18109585 -0.16352475 0.20245162 -0.17296086 -0.22130093 0.15864049 -0.079712726
0.036187652 0.08335794 -0.056961082 -0.09713148 -0.016878787 -0.07690102 -0.23363602 0.01552227
-0.18790233 -0.021566506 0.16098738 0.19516061 0.06914931 0.046860937 0.039595395 0.015656171
0.15419726 0.23220225 -0.043309446 -0.23030283 -0.07807156 0.05267695 0.20725292 -0.13756683
-0.067564204 0.05236852 0.07155151 0.04986738 -0.05729525 0.08842737 -0.009225192 -0.13750581
0.07999459 -0.27414683 -0.07056983 0.17208926 0.06243611 -0.18145715 -0.0020179898 -0.17853522
-0.0036514641 -0.14988519 -0.065388285 0.20858432 -0.20557699 -0.26271978 0.15174499 -0.22722402
0.041317247 -0.31116286 -0.14334062 0.042597238 0.12436951 -0.120848306 0.14566238 0.07304877
-0.15493308 0.15028206 -0.11322463 0.03599268 0.2584039 0.05184961 -0.104858026 -0.013458065
0.030171607 -0.14476265 -0.06866856 -0.36768278 -0.05852558 -0.32459164 -0.23339973 0.32463914
-0.17873584 -0.27220947 0.051250152 -0.23447701 -0.12061977 0.10730671 0.15925066 -0.10322363
0.014843534 0.003738741 0.22925141 0.12970875 -0.13082385 -0.030916631 -0.07007125 0.10307691
-0.1356984 -0.31259972 -0.11206545 -0.034420207 0.024899285 -0.14273 -0.13285898 -0.003864172
-0.0567056 -0.16741127 -0.08441518 0.22040744 -0.11217793 0.027968062 -0.21662459 0.08630833
-0.027781054 -0.18788804 -0.007666006 -0.03873189 -0.26335138 0.26601264 -0.1746751 0.27855358
-0.15186054 0.08447673 -0.3736238 -0.0057242312 0.083248034 -0.15262385 -0.07214826 0.20495525
-0.17653689 0.036241185 -0.21449816 0.33354104 0.17387348 0.10311243 0.24275467 0.013754948
00000000: 1115 953d 2df9 7a3e 90fe 12bc 3511 063e
00000010: 65fd f6bd 0c27 ae3d e132 1b3e 0eba c73d
00000020: 2d63 0a3e 9713 b03e a274 053e ab0d acbe
00000030: 8bc6 24bb bc60 13be e1f6 0c3d 7305 febd
00000040: af0b 103d 78e5 dbbd 91d6 553e 267b 41be
00000050: 3f04 16bf 9ee4 913e ce2f b13d 8da3 513e
00000060: 330e 2f3e 5d84 0c3e 8ef9 85be f40a 9fbc
00000070: 3fee e73d e3f8 3f3d 4d6b bb3a 0b29 f1ba
00000080: 16ba 41be 0cdc 60be 62b6 4fbe fad6 283e
00000090: 2928 83be ee78 5abc b809 3cbe 8acb 41be
000000a0: 86c2 aabe c211 a3bd 1c36 2ebd cd4c 7dbd
000000b0: 28a5 e9be 06fe 97bd 0688 843e 0728 45be
000000c0: 82e9 453d afd4 8ebd 791a 10be b9e2 49be
000000d0: 7f99 8d3c 377a 00be ef54 fdbd 86cd a53d
000000e0: a744 0f3d 6ec3 083e 9f4b 033e c8a5 5abe
000000f0: 4edf 6f3d 0f24 9e3d 8823 53be 57b1 0f3d
00000100: 267d 56be ff5b d1be b31e 6bbe c196 a13d
00000110: 2cab 98bd 6380 433e 24c0 dbbd 6fb3 efbd
00000120: 000a 83be c281 79bd 9d2f e0bd 86bb 3f3e
00000130: c6c7 bbbd a9f6 58be dc57 82bc c2f6 0d3e
00000140: 5582 6abe 8e1e 48bd dc5c 0dbd 04cb 7bbe
00000150: c936 e23d 3747 debe bb2e f9bc dac6 49be
00000160: a9d4 9fbe 4dc7 823d 31fa 0abe 31c2 d8bd
00000170: 22b6 4dbe 0cef 933d 2a23 74be 68b5 5d3e
00000180: 3b99 4c3e 5baa 253c 5b08 a1bd 24b4 943c
00000190: ba99 f63d 39e0 893e b600 42be c3c2 ed3d
000001a0: 5fe2 55be a2fa b93c a1b2 f33d 207d 7abe
000001b0: 2735 53be cdbf 6abe 07b4 543b 08cf 81bc
000001c0: 54ab 50be a9d1 8fbe e7d1 5c3e 5b9d fabe
000001d0: 62e1 5ebd 4a77 233e a44e 8dbb 58fa d33d
000001e0: 17e7 023d 3171 393e 0873 27be 7a4f 4f3e
000001f0: a71c 31be b69c 62be a772 223e 6d40 a3bd
00000200: 8139 143d 91b7 aa3d 0650 69bd dfec c6bd
00000210: 6245 8abc 487e 9dbd 483e 6fbe 1f51 7e3c
00000220: 7869 40be 3eac b0bc e0d9 243e 2fd8 473e
00000230: 279e 8d3d 41f1 3f3d c82e 223d 5f41 803c
00000240: e3e5 1d3e 6dc6 6d3e 3f65 31bd 81d4 6bbe
00000250: fbe3 9fbd c9c3 573d 1c3a 543e 52de 0cbe
00000260: 1a5f 8abd 6080 563d 9989 923d bd41 4c3d
00000270: 6dae 6abd 6919 b53d 4225 17bc 53ce 0cbe
00000280: 34d4 a33d f95c 8cbe ea86 90bd 2b38 303e
00000290: 02bd 7f3d e7cf 39be 4040 04bb f0d1 36be
000002a0: 674d 6fbb 817b 19be 4bea 85bd 2197 553e
000002b0: c682 52be 3583 86be 0a63 1b3e 6aad 68be
000002c0: 463c 293d bd50 9fbe e2c7 12be 717a 2e3d
000002d0: 71b5 fe3d 517f f7bd 8528 153e 989a 953d
000002e0: c7a6 1ebe 8ae3 193e 51e2 e7bd 0f6d 133d
000002f0: 844d 843e 4260 543d cebf d6bd 377f 5cbc
00000300: 722a f73c a93c 14be 1aa2 8cbd eb40 bcbe
00000310: 85b8 6fbd e030 a6be 5700 6fbe 1a37 a63e
00000320: 8706 37be 0a5f 8bbe aeeb 513d be1a 70be
00000330: 7f07 f7bd 9fc3 db3d 9b12 233e e966 d3bd
00000340: 4b32 733c aa05 753b e2c0 6a3e 5fd2 043e
00000350: b0f6 05be e044 fdbc 8481 8fbd fd19 d33d
00000360: 85f4 0abe 120d a0be 9282 e5bd 34fc 0cbd
00000370: 96f9 cb3c d027 12be 2f0c 08be 0c3e 7dbb
00000380: 2244 68bd dc6d 2bbe dee1 acbd 7db2 613e
00000390: 8bbd e5bd 471d e53c d6d2 5dbe 6cc2 b03d
000003a0: 1895 e3bc b965 40be 1f33 fbbb 55a5 1ebd
000003b0: fed5 86be cf32 883e 08de 32be 939e 8e3e
000003c0: 5481 1bbe 2302 ad3d 9e4b bfbe 5592 bbbb
000003d0: f27d aa3d 6d49 1cbe 78c2 93bd cadf 513e
000003e0: 16c6 34be a371 143d 68a5 5bbe e4c5 aa3e
000003f0: e40b 323e 9c2c d33d ae94 783e 6f5c 613c

fc2.weight f4 [128, 256]
-0.06940188 0.08629137 -0.12499569 -0.19960915 0.08280955 -0.05423238 -0.06717055 0.0010822099
-0.10419469 -0.1309365 0.058967676 0.22084996 0.04824683 0.2578619 0.14692247 -0.100143924
0.22592689 0.06429873 -0.31068414 -0.16637158 0.40425384 -0.25953862 -0.2361167 -0.050845716
-0.14760715 0.26944402 -0.3207961 0.07311703 0.062088907 -0.056333367 -0.021394797 0.055962387
-0.002233987 0.16104917 0.20831019 -0.12149139 -0.024979271 -0.08626824 -0.03349535 0.13729328
0.015327042 0.31983808 -0.19505794 -0.003986384 0.16160479 0.1841427 -0.082670115 -0.01566973
0.039687127 -0.0012696486 0.22497681 0.18788339 0.22131959 -0.05033201 0.032373127 -0.12809157
0.105019845 0.031765573 -0.06815773 -0.10620945 -0.094834425 -0.020251866 0.111307435 0.14080466
0.16955854 -0.04482692 0.11322626 -0.13144448 0.09991698 -0.1543935 -0.2822335 0.19935313
0.113322146 0.34676364 -0.3066041 -0.30695406 -0.00014127667 0.06482147 0.19162673 0.042523567
-0.09161505 -0.12294835 0.042657837 0.20193127 -0.21616125 0.008045268 -0.35859433 -0.00096295757
0.3333983 -0.3648322 -0.08490756 0.27903858 -0.18754211 -0.09319958 0.23085973 0.07352656
-0.07617341 -0.14995788 0.20488992 -0.6665547 -0.1750327 0.04478092 -0.037124004 0.19769701
0.029187186 -0.11950863 0.046610404 0.24657977 0.06367432 0.15517595 0.066669896 0.038760208
-0.092784725 -0.045845177 0.048989058 -0.30682647 -0.020429568 0.027792756 0.28075972 0.07397107
0.026297696 -0.07269569 0.20602696 -0.062485345 0.22943649 0.01862058 0.20311202 -0.06013623
0.22671789 0.0044342447 0.019653274 0.2885382 0.4985723 0.0972303 0.3645184 -0.05006711
0.33311477 0.017639017 -0.2896661 -0.2749984 -0.22124586 -0.048130322 0.1344323 0.18130702
-0.15784109 -0.03233935 -0.1397566 0.38923118 -0.19278418 -0.046029583 0.03453075 -0.1113657
0.03826982 0.027741237 0.05635619 -0.02000551 -0.07202419 0.114972375 0.15713987 0.23559228
-0.3909285 0.19161336 0.06468599 0.021301866 0.09965169 0.25437853 -0.097936206 -0.05054111
-0.17621444 0.088396065 0.07466805 0.03805492 -0.05903882 0.049865108 -0.17687596 0.20039468
-0.18446857 0.15138005 0.11450367 0.052061554 0.038165066 -0.0086346995 0.060132965 -0.20198278
-0.029377107 -0.088854045 0.19601388 0.23132123 -0.07629517 -0.05632427 -0.06843235 0.0025097749
0.007229157 -0.04283828 0.05907346 -0.27988335 0.044796243 0.09861381 0.045067754 -0.1683326
0.021613285 0.12989293 0.116751105 0.10644752 0.3110773 -0.11126672 -0.0030153024 -0.032433756
-0.025978291 -0.28678957 -0.034314048 0.2512633 -0.09005984 -0.019720461 0.067286216 -0.0061734775
0.0031631 0.39552042 0.06905471 0.11157861 0.022253023 -0.0076078693 0.0632042 0.02663344
-0.041654486 0.14459723 -0.10581591 0.0060798726 0.20473775 -0.2601051 -0.12886114 -0.41708136
-0.41545364 -0.19535343 -0.03375147 -0.0034164274 0.018145336 -0.034163505 0.030106232 -0.2396233
0.13823405 -0.079837255 0.1233829 0.07692141 0.14109896 0.29485312 0.07303632 -0.15954557
-0.4752511 -0.0075997584 0.12858275 -0.35598418 0.1452904 -0.031949047 -0.117368765 -0.23350888
00000000: 9322 8ebd 88b9 b03d befd ffbd 5766 4cbe
00000010: 0e98 a93d c622 5ebd b790 89bd f0d8 8d3a
00000020: 0764 d5bd 3814 06be 1788 713d 7e26 623e
00000030: 789e 453d 7a06 843e d872 163e 4218 cdbd
00000040: 6159 673e 0daf 833d fe11 9fbe 505d 2abe
00000050: 5cfa ce3e 3fe2 84be 94c8 71be 9943 50bd
00000060: 5426 17be 91f4 893e 633f a4be 62be 953d
00000070: f050 7e3d d1bd 66bd 2444 afbc d138 653d
00000080: 1568 12bb 13ea 243e 444f 553e 7ad0 f8bd
00000090: 54a1 ccbc 67ad b0bd 6c32 09bd 9c96 0c3e
000000a0: 461e 7b3c d1c1 a33e 45bd 47be 36a0 82bb
000000b0: ba7b 253e e78f 3c3e f34e a9bd ce5d 80bc
000000c0: f88e 223d 566a a6ba 5260 663e 8164 403e
000000d0: 9aa1 623e f028 4ebd af99 043d 702a 03be
000000e0: a514 d73d 9e1c 023d 4896 8bbd 5784 d9bd
000000f0: 8d38 c2bd 3ee7 a5bc 27f5 e33d 192f 103e
00000100: c1a0 2d3e 6f9c 37bd 2be3 e73d 6299 06be
00000110: 46a1 cc3d 5419 1ebe e980 90be 3a23 4c3e
00000120: 7115 e83d 018b b13e 36fb 9cbe 1529 9dbe
00000130: ab23 14b9 1ec1 843d cc39 443e 312d 2e3d
00000140: aca0 bbbd 58cc fbbd fcb9 2e3d 12c7 4e3e
00000150: 6059 5dbe 4dd0 033c ad99 b7be fd6e 7cba
00000160: 2fb3 aa3e 49cb babe 04e4 adbd 25de 8e3e
00000170: 0a0b 40be 6cdf bebd 7e66 6c3e 1895 963d
00000180: ce00 9cbd 8f8e 19be aace 513e 54a3 2abf
00000190: c63b 33be 336c 373d 570f 18bd 1671 4a3e
000001a0: f719 ef3c f1c0 f4bd 8dea 3e3d 687f 7c3e
000001b0: af67 823d 72e6 1e3e 3a8a 883d 06c3 1e3d
000001c0: eb05 bebd 27c8 3bbd c0a8 483d 5c18 9dbe
000001d0: e95b a7bc a2ad e33c bdbf 8f3e 257e 973d
000001e0: 446e d73c 7ae1 94bd bbf8 523e a2f0 7fbd
000001f0: 66f1 6a3e 308a 983c 99fc 4f3e 6851 76bd
00000200: bc28 683e 244d 913b e7ff a03c 47bb 933e
00000210: de44 ff3e ae20 c73d 28a2 ba3e 2c13 4dbd
00000220: 058e aa3e b37f 903c 1d4f 94be 97cc 8cbe
00000230: 468e 62be 4d24 45bd 9fa8 093e 8ca8 393e
00000240: 18a1 21be 4476 04bd 5b1c 0fbe 4f49 c73e
00000250: 3769 45be 8489 3cbd 1e70 0d3d b313 e4bd
00000260: d1c0 1c3d 9741 e33c c0d5 663d 98e2 a3bc
00000270: 6b81 93bd a376 eb3d 46e9 203e 1a3f 713e
00000280: c827 c8be 4b36 443e 177a 843d 4081 ae3c
00000290: 2f16 cc3d e73d 823e c792 c8bd 3204 4fbd
000002a0: 8f71 34be ff08 b53d 90eb 983d 7adf 1b3d
000002b0: b1d2 71bd 5b3f 4c3d f91e 35be 4334 4d3e
000002c0: 54e5 3cbe 5f03 1b3e e680 ea3d 7f3e 553d
000002d0: f952 1c3d 8e78 0dbc fc4d 763d 93d4 4ebe
000002e0: 42a8 f0bc 1cf9 b5bd ddb7 483e 79df 6c3e
000002f0: a440 9cbd 47b4 66bd 4326 8cbd 097b 243b
00000300: 90e2 ec3b 3177 2fbd 03f7 713d df4c 8fbe
00000310: 447c 373d 0af6 c93d f798 383d 625f 2cbe
00000320: 580e b13c a702 053e 341b ef3d 2801 da3d
00000330: 8645 9f3e cedf e3bd 619c 45bb 42d9 04bd
00000340: 6dd0 d4bc 15d6 92be e38c 0cbd 95a5 803e
00000350: 4b71 b8bd ce8c a1bc 5bcd 893d e24a cabb
00000360: 034c 4f3b a781 ca3e 8e6c 8d3d 5483 e43d
00000370: f94b b63c 6f4b f9bb 3471 813d 5f2e da3c
00000380: e59d 2abd 4c11 143e 03b6 d8bd ab39 c73b
00000390: c6a6 513e 7f2c 85be 2df4 03be b08b d5be
000003a0: 57b6 d4be bb0a 48be fb3e 0abd 24e6 5fbb
000003b0: 87a5 943c 08ef 0bbd 58a1 f63c cf5f 75be
000003c0: 3a8d 0d3e b781 a3bd 2db0 fc3d f988 9d3d
000003d0: 3f7c 103e fdf6 963e 1194 953d ea5f 23be
000003e0: 1d54 f3be 6507 f9bb 32ab 033e 8f43 b6be
000003f0: 02c7 143e 01dd 02bd 095f f0bd f41c 6fbe

fc2.bias f4 [128]
-0.08355322 -0.055742722 -0.058356185 -0.06266533 -0.18954638 0.09075501 0.09374204 -0.014936335
-0.05830316 -0.03213927 0.01989391 -0.20085739 0.08362028 -0.03359671 -0.18317133 -0.093994424
-0.026682759 -0.15975013 0.07022821 -0.07970276 -0.09849958 -0.140107 0.057189602 0.095280886
-0.05805864 -0.041255854 0.04243197 -0.091230735 -0.053723842 -0.031011708 -0.019289715 0.04207493
-0.020792788 -0.03932186 0.026726745 -0.045615148 0.011067388 -0.017037684 -0.012585029 -0.046451468
-0.027533902 0.00050438294 -0.17388013 -0.024787836 -0.0834232 -0.042029366 -0.025216999 -0.21882273
-0.15772548 -0.13266331 -0.12965491 0.040031604 0.043351147 -0.06283823 -0.06817664 0.0049798815
-0.24595794 -0.0043960013 0.038131475 -0.0024992567 -0.094711 -0.038133103 -0.04845491 -0.18420894
0.06741266 -0.0638651 0.067194186 -0.15558831 0.043939468 -0.06899518 -0.1906255 0.049472675
-0.10920365 -0.07309091 -0.04074735 -0.013528712 0.06471231 -0.045300987 0.01905728 -0.103739515
0.12510818 0.08733438 -0.050667766 -0.10644333 -0.0037049109 -0.039045744 -0.13949913 -0.102262534
-0.043546513 -0.069174945 -0.070695035 -0.040407285 0.016228734 -0.009708172 0.07094987 -0.12314712
-0.020838024 -0.026232947 -0.031448916 -0.03131195 -0.0073138387 -0.025224907 -0.100882724 -0.083454534
-0.031478394 0.03917592 -0.10200391 0.0045168106 0.045040973 -0.07145382 -0.06999684 -0.063581206
0.035426922 -0.064853095 -0.14536755 -0.17141376 0.022183873 -0.11766757 0.01292153 0.067279615
0.014309565 -0.010375401 0.09427927 -0.013364108 -0.04998357 -0.0698404 -0.13866034 -0.052932147
00000000: f31d abbd 7b52 64bd e506 6fbd ae56 80bd
00000010: 7218 42be c3dd b93d d4fb bf3d 88b7 74bc
00000020: 4bcf 6ebd 78a4 03bd 8ef8 a23c 8fad 4dbe
00000030: 1c41 ab3d b49c 09bd 4491 3bbe 2680 c0bd
00000040: cd95 dabc 8a95 23be cfd3 8f3d 333b a3bd
00000050: 26ba c9bd 3678 0fbe a53f 6a3d a022 c33d
00000060: e6ce 6dbd e6fb 28bd 25cd 2d3d 2ed7 babd
00000070: 880d 5cbd 440c febc 7705 9ebc c356 2c3d
00000080: a355 aabc f50f 21bd 0cf2 da3c f3d6 3abd
00000090: fd53 353c 9d92 8bbc 7031 4ebc e543 3ebd
000000a0: c78e e1bc 9138 043a a20d 32be dc0f cbbc
000000b0: c8d9 aabd fc26 2cbd e193 cebc 1113 60be
000000c0: ca82 21be e4d8 07be 42c4 04be 2ef8 233d
000000d0: f990 313d 54b1 80bd 32a0 8bbd 462e a33b
000000e0: 66dc 7bbe 550c 90bb c02f 1c3d 92ca 23bb
000000f0: d7f7 c1bd 7531 1cbd a878 46bd 45a1 3cbe
00000100: a60f 8a3d b5cb 82bd 1b9d 893d 8b52 1fbe
00000110: dff9 333d 584d 8dbd 5533 43be dca3 4a3d
00000120: 2aa6 dfbd b0b0 95bd b1e6 26bd 88a7 5dbc
00000130: e387 843d 878d 39bd 031e 9c3c 6275 d4bd
00000140: 5c1c 003e 5edc b23d 0189 4fbd f6fe d9bd
00000150: 17ce 72bb 6eee 1fbd dcd8 0ebe 056f d1bd
00000160: d45d 32bd 98ab 8dbd 8fc8 90bd 1c82 25bd
00000170: 1ff2 843c 060f 1fbc 2a4e 913d 8f34 fcbd
00000180: 81b4 aabc 7ae6 d6bc 94d0 00bd f640 00bd
00000190: eda8 efbb 77a4 cebc 9a9b cebd 36ea aabd
000001a0: 7def 00bd ee76 203d 6de7 d0bd c101 943b
000001b0: e27c 383d 6156 92bd 815a 8fbd dd36 82bd
000001c0: d21b 113d b3d1 84bd 3bdb 14be 1787 2fbe
000001d0: f4ba b53c b2fb f0bd d3b4 533c e5c9 893d
000001e0: aa72 6a3c 96fd 29bc 7d15 c13d 22f5 5abc
000001f0: 92bb 4cbd 7c08 8fbd fafc 0dbe 61cf 58bd

fc3.weight f4 [2, 128]
0.3256996 -0.014445434 0.0010851 -0.083591655 0.104760915 -0.022483459 0.5630449 0.24859223
0.548093 -0.7243986 -0.048403498 -0.019910067 -0.1791413 -0.056386627 0.20985763 0.23461033
0.16810574 -0.056287233 0.34357572 -0.69930977 -0.9020003 0.7295859 0.1964411 -0.55372643
-0.4501346 -0.32190892 0.26799923 -0.6226589 -0.25929677 -0.076280035 0.14916147 0.7043528
-0.19544332 -0.5588883 -0.24559487 0.34705603 -0.47244352 0.21993296 -0.16539587 0.46271515
0.0019375022 -0.19744101 0.11188317 -0.21860595 0.12817143 -0.21680818 0.35987973 -0.9415514
0.015779035 0.6182133 -0.28101948 -0.9699777 0.29920277 0.26570302 -0.6675952 -0.039672587
-0.4069173 0.31326884 0.020478737 -0.30894172 -1.0983196 -0.33176318 0.21271117 0.7191263
0.8233567 0.32924256 -0.11985697 0.1664175 0.15056847 0.24206005 0.2582205 -0.18636948
-0.5977108 -0.040377658 -0.5111055 -0.67885333 -0.9976296 -1.1541626 0.4263527 -0.27952662
0.9579355 -0.42410666 -0.25079167 0.5954324 -0.021792108 -0.22547312 0.13855664 1.2507533
-0.15535723 -0.65485936 0.017822552 0.15337361 0.07003854 -0.39660856 -0.25290352 -0.6782577
-1.0753647 0.56082225 -0.116525464 0.022415664 -0.22928648 -0.38464835 0.16836646 0.1558836
-0.65486205 0.21529293 -0.2897106 -0.3196705 0.022926178 -0.557488 -0.30170423 -0.5334417
-0.10951029 -0.39411175 -0.10971228 -0.008062157 -0.12783888 -1.1714714 -0.6275015 0.025424914
-0.32073632 0.21208075 0.27449954 0.10435109 0.0846966 -0.046407394 0.3953334 -0.4981734
0.34617957 0.1869141 -0.29534048 -0.1104957 0.50078446 -0.55777025 -0.15636301 -0.25633737
0.19670455 -0.27545515 -0.9288189 0.314884 -0.49404192 0.092448406 -1.4852723 0.030219313
-0.27827162 0.10633275 -0.54891956 0.13961029 -0.11965777 0.12952133 -0.8190771 -0.14940123
0.5818079 0.13470332 -1.0464194 0.29867455 0.5578968 0.640021 0.56630397 -0.14396246
-0.056638554 -0.1939154 -0.107388094 -0.51162094 -0.27215537 0.16363133 -0.20086198 0.10901235
0.2688928 -0.3640934 0.01825709 -0.17588867 0.19369736 0.2506005 -0.34783107 -0.2881782
0.4252732 0.024681035 0.16882403 -0.10070864 -0.7190281 0.43464783 -0.0976995 -0.36789232
-0.110583395 -0.074809 -0.62195706 -0.40843934 0.046138275 0.7247012 -0.3953406 -0.022601496
0.18894498 0.15547866 -0.69085014 0.3526435 -0.9456892 -0.7222494 -0.2693089 -0.0077382396
0.78985155 0.5107811 0.95126754 -0.3823425 0.14658344 -0.31169212 0.26020968 0.15048583
0.08456776 0.76445156 0.020083131 0.2607796 0.5911641 -1.2353054 -0.7956432 0.14104038
0.041724395 -0.2801928 0.09366064 -0.5427457 -0.26496062 -0.338456 -0.46181542 0.38676265
-0.48406875 0.015263597 -0.19879407 0.2929745 -0.73078525 -0.640111 0.6327186 0.486427
0.6383929 -1.1414511 0.12668836 -0.1276372 -0.24501649 -0.16476165 -0.63248986 -0.105431445
-0.05775145 -0.35989863 0.15896256 0.4372763 0.28537324 0.51590604 -0.52402097 -0.63735163
0.2930214 -0.48760492 -0.8553448 0.42752457 0.29402295 0.69056803 -0.66438544 0.3835793
00000000: 19c2 a63e 8bac 6cbc ea39 8e3a 1a32 abbd
00000010: e48c d63d 3b2f b8bc b623 103f f68e 7e3e
00000020: d34f 0c3f 3072 39bf bf42 46bd 701a a3bc
00000030: d170 37be aaf5 66bd ebe4 563e b13d 703e
00000040: e923 2c3e 718d 66bd 28e9 af3e f705 33bf
00000050: 7ee9 66bf 24c6 3a3f db27 493e 04c1 0dbf
00000060: 0b78 e6be 3fd1 a4be 3237 893e 9366 1fbf
00000070: 8cc2 84be b538 9cbd c9bd 183e 7750 343f
00000080: 4b22 48be 4e13 0fbf 397d 7bbe 54b1 b13e
00000090: 1ee4 f1be 1b36 613e 895d 29be 00e9 ec3e
000000a0: c9f3 fd3a fa2d 4abe 0123 e53d 3dda 5fbe
000000b0: 5f3f 033e f702 5ebe 2842 b83e 8309 71bf
000000c0: 0943 813c 3a43 1e3f c9e1 8fbe 7550 78bf
000000d0: 1b31 993e 3a0a 883e 85e7 2abf b97f 22bd
000000e0: 7757 d0be c664 a03e 06c3 a73c 9c2d 9ebe
000000f0: bd95 8cbf dddc a9be f5d0 593e a918 383f
00000100: 81c7 523f 7b92 a83e 9277 f5bd 5969 2a3e
00000110: 9f2e 1a3e 97de 773e 7a35 843e a4d7 3ebe
00000120: 9303 19bf 0b63 25bd cfd7 02bf 55c9 2dbf
00000130: a764 7fbf 9abb 93bf e74a da3e 1d1e 8fbe
00000140: 433b 753f 8224 d9be c467 80be 426e 183f
00000150: 5d85 b2bc 6de2 66be cbe1 0d3e af18 a03f
00000160: f715 1fbe dda4 27bf 9a00 923c f90d 1d3e
00000170: 5e70 8f3d 4710 cbbe 927c 81be 4ca2 2dbf
00000180: 8da5 89bf 0c92 0f3f e7a4 eebd 0ea1 b73c
00000190: 13ca 6abe a1f0 c4be 4268 2c3e f39f 1f3e
000001a0: 0aa5 27bf c075 5c3e f354 94be daab a3be
000001b0: aecf bb3c 89b7 0ebf fa78 9abe a38f 08bf
000001c0: ee46 e0bd 04c9 c9be d5b0 e0bd 2317 04bc
000001d0: 32e8 02be c6f2 95bf f0a3 20bf e947 d03c
000001e0: 8d37 a4be b22b 593e 348b 8c3e 06b6 d53d
000001f0: 6975 ad3d ae15 3ebd 2469 ca3e 9510 ffbe
00000200: 733e b13e 6966 3f3e de36 97be 924b e2bd
00000210: 6933 003f 08ca 0ebf a01d 20be a73e 83be
00000220: eb6c 493e 7508 8dbe 13c7 6dbf 7a38 a13e
00000230: 10f3 fcbe 9755 bd3d 671d bebf 7e8e f73c
00000240: 9e79 8ebe fcc4 d93d fe85 0cbf 00f6 0e3e
00000250: 220f f5bd 3da1 043e 09af 51bf a3fc 18be
00000260: 5df1 143f abef 093e 12f1 85bf dfeb 983e
00000270: 53d2 0e3f 6bd8 233f 4cf9 103f e56a 13be
00000280: d4fd 67bd c291 46be 4aee dbbd 97f9 02bf
00000290: f357 8bbe f98e 273e c3ae 4dbe de41 df3d
000002a0: 51ac 893e 736a babe e58f 953c 291c 34be
000002b0: 9a58 463e b54e 803e ea16 b2be 188c 93be
000002c0: 69bd d93e e22f ca3c 35e0 2c3e 5540 cebd
000002d0: 3a12 38bf 298a de3e ad16 c8bd 625c bcbe
000002e0: 8c79 e2bd 7635 99bd 9438 1fbf f61e d1be
000002f0: 7dfb 3c3d 0586 393f 156a cabe c626 b9bc
00000300: cb7a 413e cc35 1f3e 8edb 30bf b08d b43e
00000310: b018 72bf 56e5 38bf dbe2 89be 0f91 fdbb
00000320: b633 4a3f 8dc2 023f 4586 733f 65c2 c3be
00000330: f819 163e 1c96 9fbe 343a 853e f518 1a3e
00000340: dd31 ad3d 19b3 433f 6185 a43c e784 853e
00000350: 8856 173f 7d1e 9ebf 46af 4bbf e46c 103e
00000360: 33e7 2a3d 6e75 8fbe 26d1 bf3d 62f1 0abf
00000370: eba8 87be 1b4a adbe 1273 ecbe c105 c63e
00000380: dcd7 f7be 2a14 7a3c ac90 4bbe c100 963e
00000390: be14 3bbf 51de 23bf d9f9 213f f60c f93e
000003a0: b86d 233f 121b 92bf 98ba 013e 53b3 02be
000003b0: 9ae5 7abe 47b7 28be dbea 21bf 71ec d7bd
000003c0: c98c 6cbd a244 b8be 15c7 223e aee2 df3e
000003d0: 711c 923e 6b12 043f 3d26 06bf 7a29 23bf
000003e0: e706 963e 5aa7 f9be e0f7 5abf 80e4 da3e
000003f0: 2d8a 963e 11c9 303f 2a15 2abf 8264 c43e

fc3.bias f4 [2]
0.06250766 -0.08682251
00000000: 0404 803d 00d0 b1bd
