checkpoint_actor.pth (torch_old, 159294 bytes, 6 tensors)

fc1.weight f4 [256, 24]
0	0xbd77a638	-0.060461253
1	0x3e7ab52d	0.24483176
2	0xbc59eab0	-0.013300583
3	0x3c7d2078	0.015449636
4	0xbe8e4209	-0.27784756
5	0xbeea741e	-0.45791715
6	0xbcb4d497	-0.022074027
7	0x3d6ace35	0.05732556
8	0x3c43e146	0.011955565
9	0x3e9d72d5	0.30751672
10	0xbd07ff49	-0.033202443
11	0x3d89d1c4	0.06729463
12	0xbdad567f	-0.084637634
13	0xbeeaf934	-0.45893252
14	0xbb27c980	-0.002560228
15	0x3dac66a5	0.084180154
16	0xbc939b20	-0.018018305
17	0x3e8886d3	0.26665363
18	0xbbcaa138	-0.0061837696
19	0xbe450f9f	-0.1924424
20	0x3e56447c	0.20924562
21	0x3ced1dd1	0.028944882
22	0xbc270e59	-0.010196292
23	0xbe58032a	-0.21094957
24	0xbd59ca9b	-0.053171735
25	0xbe225af9	-0.15855016
26	0x3d336fbd	0.043807734
27	0x3ca4e2e8	0.020127729
28	0xbe81feb7	-0.25389645
29	0x3d64e2b6	0.05588027
30	0xbcf7a43a	-0.030229677
31	0x3d80f676	0.06297009
32	0x3c914df8	0.017737374
33	0xbe0bcdbb	-0.13652699
34	0x3d30f25f	0.043199893
35	0x3d839451	0.064247735
36	0x3db1094a	0.0864435
37	0xbe4fc2f4	-0.20289212
38	0xbd040cac	-0.032238647
39	0x3d1adeab	0.03781001
40	0xbe01232c	-0.12611073
41	0xbdd9fc3e	-0.106438145
42	0xbd08c655	-0.03339227
43	0xbd4e237e	-0.050326817
44	0x3ebb2b81	0.36556628
45	0xbda1e65e	-0.07905267
46	0x3c9645c0	0.018343806
47	0xbd5250a6	-0.051346444
48	0x3da1be08	0.07897574
49	0xbe049f09	-0.12951292
50	0xbd417c4a	-0.047237672
51	0xbdab3437	-0.083595686
52	0x3cb2feee	0.021850076
53	0xbe317d33	-0.17332916
54	0xbc9d8d8c	-0.019232534
55	0xbd84de82	-0.064877525
56	0x3dec325d	0.115330435
57	0xbdfda225	-0.12384442
58	0x3c730979	0.014833801
59	0x3e82c897	0.25543663
60	0x3e40df13	0.18835096
61	0xbe3535a5	-0.17696245
62	0xbc5d2593	-0.013497728
63	0x3e39bdde	0.18138835
64	0x3d38e178	0.0451369
65	0xbcbff40c	-0.0234318
66	0xbd8ef742	-0.069807544
67	0x3e2d3cb8	0.16917694
68	0x3e59dcef	0.21275686
69	0x3d3ddd41	0.046353582
70	0x3ba66f55	0.00507919
71	0x3e447713	0.19186048
72	0x3dd66d67	0.104700856
73	0x3dc4d752	0.096113816
74	0x3cc8077e	0.024417635
75	0x3d324cb3	0.043530177
76	0xbd697cdc	-0.05700384
77	0x3d44a13c	0.048005328
78	0xbd0a99e0	-0.033838153
79	0x3d51166e	0.05104678
80	0x3e1b5e71	0.15172745
81	0x3deaf4a6	0.11472444
82	0xbb032242	-0.0020009433
83	0x3db28259	0.08716268
84	0xbe7c78a6	-0.24655399
85	0xbe8d69bb	-0.27619728
86	0x3c363312	0.011120575
87	0x3ce76c25	0.02824981
88	0x3e559ad7	0.20859848
89	0x3d50739a	0.050891496
90	0xbcc29ac7	-0.023755444
91	0xbd347746	-0.04405906
92	0xbea462af	-0.3210654
93	0xbe80ee85	-0.25181976
94	0x3d0a0c6a	0.033703245
95	0xbd06f3d8	-0.03294739
96	0x3c8ae619	0.016955422
97	0xbdea5857	-0.11442631
98	0xbca86d00	-0.020559788
99	0xbaf287c1	-0.0018503593
100	0xbe5288e8	-0.20560038
101	0xbdc52c66	-0.09627609
102	0x3d003021	0.0312959
103	0xbbb5957c	-0.0055415016
104	0x3d4a99e4	0.049463168
105	0xbe3c207d	-0.18371768
106	0xbcab2cef	-0.02089545
107	0x3d799772	0.060935445
108	0x3e8e717b	0.27820954
109	0xbd386f35	-0.04502793
110	0x3c6bcf75	0.014392723
111	0x3cb1beb0	0.021697372
112	0xbad64791	-0.0016348233
113	0xbdc8d726	-0.09806661
114	0x3c8a10c0	0.01685369
115	0xbd80b1f5	-0.062839426
116	0x3f581c61	0.844183
117	0x3db2fddf	0.08739828
118	0x3b3a7d59	0.002845606
119	0xbc0328b6	-0.008005312
120	0x3d559cc5	0.05215146
121	0x3edb7627	0.4286358
122	0xbd1d03d6	-0.038333736
123	0x3e518fd3	0.20465021
124	0xbdd3d59a	-0.10343476
125	0xbe3bc75c	-0.18337768
126	0x3c890789	0.016727226
127	0x3e102133	0.14075164
128	0x3db810f2	0.08987607
129	0x3eeb4059	0.4594753
130	0xbc1fae7c	-0.00974619
131	0x3d16f8c0	0.03685832
132	0xbe040777	-0.12893473
133	0xbe1e8440	-0.15480137
134	0x3cae426e	0.02127191
135	0xbd079c51	-0.03310806
136	0x3e38d2db	0.18049185
137	0x3ec7f310	0.3905263
138	0x3cf9fb28	0.030515268
139	0xbe803569	-0.2504075
140	0xbe2f6235	-0.17127307
141	0xbedc36cd	-0.4301056
142	0xbc84d1a4	-0.016213246
143	0xbe891f9f	-0.26781937
144	0xbd17697b	-0.03696583
145	0xbe99c488	-0.30032754
146	0xbd009fbe	-0.031402342
147	0xba98706a	-0.0011630182
148	0xbdeac0e5	-0.11462573
149	0xbe162e92	-0.14666203
150	0x3cd983fa	0.02655219
151	0x3d0ed7d0	0.034873784
152	0x3d4e67a9	0.050391827
153	0xbe8ea80d	-0.27862588
154	0x3b07bff5	0.002071378
155	0xbbf73a17	-0.0075447666
156	0xbe6cc379	-0.23121442
157	0x3de2c8d7	0.110734634
158	0xbc2fe64a	-0.010736058
159	0xbd14931e	-0.036273114
160	0x3e23fde3	0.16014819
161	0xbe8548d4	-0.26032126
162	0x3c027723	0.007962975
163	0x3d28ead9	0.041239593
164	0xbe9dea83	-0.3084298
165	0x3f499ebe	0.78757846
166	0xbc5db7a1	-0.01353255
167	0xbb5fba53	-0.0034138157
168	0xbd912356	-0.07086818
169	0xbe05ce7e	-0.13067052
170	0xbd15cf03	-0.036574375
171	0x3d304b3c	0.0430405
172	0xbd8df27f	-0.06931018
173	0xbf2bcc0b	-0.6710822
174	0x3d708a86	0.058725856
175	0xbd227d0f	-0.039670046
176	0xbc0555bd	-0.008138117
177	0xbdfbe26a	-0.122990444
178	0x3c260f82	0.010135533
179	0x3d42f157	0.04759344
180	0xba0501a5	-0.00050737924
181	0xbe89a90c	-0.26886785
182	0x3c920e57	0.017829103
183	0xbc9d296e	-0.019184794
184	0xbda0bb5d	-0.07848237
185	0xbd791dd5	-0.060819466
186	0x3d9bda13	0.07609954
187	0x3c7c1821	0.015386612
188	0x3e10c1cc	0.14136428
189	0x3f65bd7b	0.8974225
190	0xbcf07c83	-0.029356247
191	0x3de955db	0.11393329
192	0x3b8a7b9d	0.0042261616
193	0xbddaa3d4	-0.10675779
194	0x3d338587	0.043828513
195	0xbd540a81	-0.05176783
196	0xbeb3121e	-0.3497476
197	0xbe9eaa09	-0.30989102
198	0xbcd9795f	-0.026547132
199	0x3cd1c622	0.025607172
200	0xbba2bf23	-0.004966633
201	0xbe21fdbb	-0.15819447
202	0xbd6c2eb1	-0.057661716
203	0xbd8d8d24	-0.06911686
204	0x3c948654	0.018130459
205	0xbe3788a3	-0.17923217
206	0x3c51c392	0.012802975
207	0xbc8b55eb	-0.017008742
208	0xbcac6db8	-0.021048412
209	0xbdc57654	-0.0964171
210	0xbd35d974	-0.044396833
211	0xbdc55db5	-0.09637014
212	0x3ec40410	0.3828435
213	0x3ed23fde	0.41064352
214	0x3c6474a1	0.013943822
215	0xbd672657	-0.056433048
216	0x3de270f1	0.11056698
217	0x3e4a09f0	0.19730353
218	0x3b359e25	0.002771267
219	0xbde064eb	-0.109567486
220	0x3c7a38af	0.0152723035
221	0xbe34be19	-0.17650642
222	0x3cdc7bce	0.026914503
223	0xbdd0e371	-0.10199631
224	0x3daba025	0.083801545
225	0x3e2a31a1	0.16620494
226	0xbd9eb54e	-0.07749425
227	0x3d104420	0.03522122
228	0x3d9d72f4	0.07687941
229	0xbddbb4af	-0.10727822
230	0xbbeedb4c	-0.007289326
231	0xbd9389ee	-0.072040424
232	0x3da7cc7b	0.081932984
233	0x3e8ba8bf	0.2727718
234	0x3c642a56	0.013926109
235	0x3e13b7f5	0.14425643
236	0x3ddcb0dc	0.10775921
237	0xbe1070b0	-0.14105487
238	0x3c97939b	0.018503001
239	0x3dcefb3a	0.101065114
240	0x3e1221f5	0.14270766
241	0xbe18a374	-0.14906102
242	0xbc0e0966	-0.008669233
243	0x3d92db2d	0.07170711
244	0x3ea10b80	0.31454086
245	0xbe6f799b	-0.23386233
246	0x3b4a8d43	0.0030906952
247	0x3caa3432	0.020776842
248	0x3d37ce78	0.04487464
249	0xbe4003b1	-0.18751408
250	0xbc5b84d9	-0.013398373
251	0xbd8bfb77	-0.068350725
252	0x3df44141	0.11926509
253	0xbdcb1afd	-0.09917257
254	0x3cd4cdbf	0.025977014
255	0xbe0266d7	-0.12734543

fc1.bias f4 [256]
0	0x3db0a9ec	0.0862616
1	0x3ea78c04	0.3272401
2	0xbdde47e5	-0.108535565
3	0x3e1c6755	0.15273793
4	0xbe029b54	-0.12754565
5	0x3b809df8	0.0039250813
6	0xbca3463a	-0.019930948
7	0x3db6a1ab	0.089175545
8	0x3e5ef02a	0.21771303
9	0x3d4e8115	0.05041607
10	0x3e907176	0.28211564
11	0xbe29db80	-0.16587639
12	0x3e7c5747	0.24642669
13	0xbe81f806	-0.2538454
14	0x3e85e706	0.2615282
15	0x3d275fab	0.04086272
16	0xbdf3087b	-0.11866852
17	0x3dad1f31	0.08453215
18	0x3d33de7c	0.04391335
19	0xbea5abd6	-0.32357663
20	0xbe6364d7	-0.22206436
21	0x3e5b9a24	0.21445519
22	0xbd074bbd	-0.033031214
23	0x3d0f9bfb	0.035060864
24	0x3e8cdde4	0.2751304
25	0x3e8017c4	0.25018132
26	0xbe95df43	-0.29271898
27	0x3ed8805c	0.4228543
28	0x3e78c835	0.24295123
29	0xbde2c3e0	-0.110725164
30	0x3b7894c6	0.0037930473
31	0xbddb5c6d	-0.10710988
32	0xbe9893d5	-0.29800287
33	0xbcd948a7	-0.026523901
34	0xbea8f90e	-0.33002514
35	0x3d5b9e7e	0.053617947
36	0xbe44f462	-0.1923385
37	0x3db15ea5	0.0866063
38	0xbe271ac1	-0.163188
39	0xbe58ea60	-0.21183157
40	0xbd582859	-0.052772854
41	0x3bcef12e	0.006315372
42	0x3e237841	0.15963842
43	0xbe93baae	-0.28853363
44	0xbe7aa167	-0.24475633
45	0xbe5b3ed5	-0.21410687
46	0x3de1431c	0.10999128
47	0xbe54340f	-0.20722984
48	0xbd99569e	-0.07487224
49	0xbe0ec15b	-0.13940947
50	0xbe4c70be	-0.19964883
51	0xbe6e15b6	-0.2325047
52	0xb9a92c87	-0.00032267367
53	0xbd0b38aa	-0.033989586
54	0xbd673c64	-0.056454077
55	0x3d8ee9a7	0.069781594
56	0xbc8f00ab	-0.017456373
57	0x3afb0027	0.0019149826
58	0x3e75fa65	0.24021299
59	0xbe12fddf	-0.14354657
60	0x3d432df3	0.047651242
61	0x3dbfccfa	0.09365268
62	0xbe87ac29	-0.26498535
63	0x3dc11fd7	0.09429901
64	0xbe86dd3e	-0.2634067
65	0xbe95459a	-0.29154664
66	0xbe19fadd	-0.15037103
67	0x3e84a253	0.25905094
68	0xbe3f0a5d	-0.18656297
69	0x3d907cf7	0.07055085
70	0x3e4c154f	0.19930004
71	0xbddd89e4	-0.10817316
72	0xbe823806	-0.25433367
73	0x3da2eae4	0.07954958
74	0xbe5d0ac1	-0.21586134
75	0x3e52dabe	0.20591256
76	0x3debf17c	0.11520669
77	0xbdaba72c	-0.08381495
78	0x3dfddd43	0.12395718
79	0x3ee1a0cb	0.44067988
80	0xbe432887	-0.19058429
81	0xbe34997c	-0.17636675
82	0xbe36f0ac	-0.17865247
83	0xbe7ed0d5	-0.2488435
84	0x3e240e63	0.16021113
85	0xbe834f9c	-0.25646675
86	0x3e1c9cdd	0.15294214
87	0xbe1a898d	-0.15091534
88	0xbe88bfdd	-0.2670888
89	0xbddf837a	-0.10913749
90	0x3da26675	0.079296984
91	0xbd066cea	-0.032818712
92	0xbebb5606	-0.36589068
93	0x3e4cad62	0.19988015
94	0x398e6ff2	0.00027167756
95	0x3d86820c	0.06567773
96	0x3d6ada79	0.057337258
97	0xbdedbcb6	-0.116082594
98	0xbe01ff21	-0.1269498
99	0xbd3bf909	-0.045891795
100	0x3d00ab76	0.031413518
101	0x3def2d11	0.116785176
102	0xbeae4515	-0.3403708
103	0x3e6be098	0.23034894
104	0xbdd1b1f1	-0.10239018
105	0xbe0d06b8	-0.13772094
106	0x3d8cf344	0.06882337
107	0x3e0b26f0	0.13589072
108	0xbe908551	-0.28226712
109	0xbdca2a55	-0.098713554
110	0xbdb02942	-0.08601619
111	0xbd27ece9	-0.04099742
112	0xbe67bc6b	-0.2263047
113	0xbe26d76e	-0.16293117
114	0x3e281fd8	0.16418397
115	0xbe0c83d7	-0.13722168
116	0xbee2bea8	-0.44286084
117	0x3ceb20fc	0.028702252
118	0x3e5b627f	0.21424292
119	0x3e3a6d8d	0.18205853
120	0xbdb877ca	-0.09007223
121	0x3e0264e4	0.12733799
122	0xbd6ca930	-0.057778537
123	0x3d8fe3ef	0.07025897
124	0xbe00f172	-0.12592104
125	0xbe4b1d30	-0.19835353
126	0x3eb81d46	0.35959834
127	0x3e8059ad	0.25068417
128	0x3ca53206	0.020165455
129	0xbc78a8a6	-0.015176928
130	0x3d91a6bd	0.07111881
131	0xbe9af48a	-0.30264693
132	0x3e6a4d59	0.22881068
133	0x3da60c82	0.081078544
134	0xbd271bfa	-0.040798165
135	0xbd22c0e6	-0.039734744
136	0xbd4bbcc5	-0.04974057
137	0x3d6c2401	0.057651524
138	0x3e556de9	0.20842709
139	0x3e671464	0.22566372
140	0x3d0f0f9c	0.034926996
141	0xbd149a43	-0.036279928
142	0xbd370868	-0.04468575
143	0x3e3e8292	0.18604496
144	0x3e8a1447	0.26968595
145	0x3e83f595	0.25773302
146	0xbe61a51a	-0.22035637
147	0xbab83363	-0.00140534
148	0xbdee93ef	-0.1164931
149	0x3d9fb22b	0.07797655
150	0x3e12fc15	0.14353974
151	0xbdcad9f3	-0.09904852
152	0x3e2a46a8	0.16628516
153	0xbd371e6b	-0.044706743
154	0x3e2b2499	0.1671318
155	0xbe70e88a	-0.23526207
156	0xbdd0536b	-0.10172161
157	0x3d55e070	0.052215993
158	0x3dcffb29	0.10155327
159	0xbdab0b07	-0.08351713
160	0x3cece758	0.028918907
161	0xbc89e14b	-0.01683106
162	0xbdb06c3a	-0.086143926
163	0x3de6bf80	0.112669945
164	0xbdb7fd51	-0.08983863
165	0xbdd26d8e	-0.10274802
166	0x3dc97938	0.09837574
167	0x3c9f70ff	0.01946306
168	0xbe0240a6	-0.12719974
169	0xbe00f6d1	-0.12594153
170	0x3e20d8de	0.15707728
171	0x3e5e3859	0.21701182
172	0xbdb1ca47	-0.086811595
173	0xbcb03102	-0.021507744
174	0x3e706feb	0.23480193
175	0xbe0e4110	-0.13892007
176	0xbe0c4df9	-0.13701619
177	0xbe631688	-0.22176564
178	0xbe130fab	-0.14361446
179	0x3cd7bdc1	0.026335599
180	0x3e454c69	0.1926743
181	0xbe78afa8	-0.24285758
182	0x3e269960	0.16269445
183	0xbe1d23f3	-0.15345745
184	0xbe262603	-0.16225438
185	0xbda9bc7d	-0.082879044
186	0xbd7e7f9e	-0.062133424
187	0x3ddf8ca6	0.109154984
188	0xbd7a8180	-0.061158657
189	0xbccc4274	-0.024934031
190	0x3d691e63	0.056913745
191	0xbd7ee38d	-0.062228728
192	0x3ba670c6	0.0050793616
193	0xbe397ec1	-0.18114759
194	0x3d92edd9	0.07174272
195	0xbe83ee8a	-0.25767928
196	0xbe4663e6	-0.19374046
197	0xbe30da1d	-0.17270704
198	0xbe62ce5c	-0.22149032
199	0x3e4f6600	0.20253754
200	0xbe55e401	-0.20887758
201	0xbe002681	-0.12514688
202	0x3d2389fa	0.039926507
203	0xbe3176e5	-0.17330511
204	0xbe0eff2f	-0.13964532
205	0x3dfc92f6	0.12332718
206	0x3ee9358c	0.45548666
207	0xbca4f25b	-0.020135095
208	0x3e07d3a6	0.13264331
209	0x3c5483cb	0.012970875
210	0x3e2b9027	0.16754209
211	0x3e65d7ae	0.22445557
212	0xbe33fac8	-0.17576134
213	0x3d350018	0.044189543
214	0xbdc57651	-0.09641708
215	0x3d54e87e	0.051979534
216	0xbe80427d	-0.25050727
217	0xbe51e59f	-0.2049775
218	0xbeaa0945	-0.33210197
219	0xbe0def93	-0.13860922
220	0xbe238379	-0.15968122
221	0x3e046f89	0.12933172
222	0x3d9e4cd7	0.077295
223	0xbe211ce9	-0.15733685
224	0x3d1904bb	0.037358027
225	0xbe2d535a	-0.16926327
226	0xbe30809b	-0.17236559
227	0x3de8ea31	0.113727935
228	0xbe922401	-0.28543094
229	0xbe6e0cd7	-0.23247086
230	0xbdcf8368	-0.10132486
231	0xbd2d9a5a	-0.04238353
232	0x3dd2f3e5	0.103004254
233	0xbe9f5760	-0.3112135
234	0x3e267eac	0.16259259
235	0xbbcb492e	-0.006203792
236	0xbe7a1cab	-0.24424998
237	0xbc86f762	-0.016475383
238	0xbe364d20	-0.17802858
239	0x3e549c60	0.20762777
240	0xbed67571	-0.41886476
241	0x3eed4319	0.46340254
242	0xbe7ef3f7	-0.24897753
243	0x3e0d3b4a	0.13792148
244	0x3e05f94c	0.1308338
245	0x3c9b563b	0.018962016
246	0xbe3809c1	-0.17972471
247	0x3d4589ac	0.048226997
248	0xbda64099	-0.0811779
249	0x3c0e65a9	0.00869123
250	0xbe1cfbd1	-0.15330435
251	0x3e20e8ae	0.1571376
252	0x3e9043c4	0.281767
253	0x3dbcabe6	0.092124745
254	0x3c4b66f4	0.012414683
255	0xbdeef17f	-0.116671555

fc2.weight f4 [128, 256]
0	0xbe3ab7a7	-0.1823412
1	0xbda2b139	-0.07943959
2	0x3e43c90d	0.19119664
3	0xbdb5a8c3	-0.08870079
4	0x3d31ca18	0.043405622
5	0xbbe63f83	-0.007026614
6	0xbd9724f4	-0.07380095
7	0xbe3ff44e	-0.18745539
8	0xbde6f234	-0.11276665
9	0xbd1e0774	-0.038581327
10	0xbbf77ef4	-0.007552976
11	0x3ec259fc	0.37959278
12	0x3de474aa	0.111550644
13	0xbcacaf27	-0.021079613
14	0x3dd3d4e1	0.10343338
15	0x3e10114a	0.14069095
16	0xbe8bd9a3	-0.2731448
17	0x3e2d46c0	0.1692152
18	0xbe9a8dd6	-0.30186337
19	0xbb9ac1a1	-0.0047227894
20	0x3e014875	0.12625296
21	0x3d4a10b2	0.04933233
22	0xbe271c91	-0.16319491
23	0xbe2c1c7f	-0.16807745
24	0xbdd52973	-0.104082964
25	0x3d9e7f6b	0.07739147
26	0xbe43a442	-0.19105628
27	0x3d9428f3	0.07234373
28	0xbd63eba8	-0.05564466
29	0xbdbdbd50	-0.09264624
30	0x3d7b698b	0.06137995
31	0x3dca008c	0.098633856
32	0x3daa06e6	0.08302097
33	0x3c99ae45	0.018759856
34	0x3d857502	0.06516458
35	0x3c7f4e9a	0.015582705
36	0x3e082478	0.13295162
37	0x3e1f86c0	0.15578747
38	0xbd2cb56d	-0.04216521
39	0xbe3ba066	-0.18322906
40	0xbe03658d	-0.12831707
41	0x3e5393d5	0.20661862
42	0xbd841b92	-0.06450571
43	0xbe6b69fa	-0.22989646
44	0xbc648795	-0.013948341
45	0x3cf84cab	0.030309996
46	0x3dcdbde6	0.10045986
47	0xbde520e0	-0.11187911
48	0x3d436257	0.047701206
49	0x3ccd11ad	0.025032843
50	0xbd322166	-0.043488882
51	0x3e25f9be	0.1620855
52	0xbcbe89c0	-0.023259044
53	0x3d68bbed	0.056819845
54	0xbdb72b1e	-0.08943771
55	0x3c00c081	0.0078583965
56	0xbe74d2dc	-0.23908561
57	0x3d5905ec	0.052984163
58	0xbcb78bb4	-0.022405483
59	0xbb7e5741	-0.0038809332
60	0xbcffa96f	-0.031208722
61	0x3de90fa3	0.113799356
62	0xbd57d8ac	-0.05269687
63	0xbd4dcd39	-0.050244544
64	0xbb84ea67	-0.0040562632
65	0x3df21f06	0.118223235
66	0x3dce3842	0.10069324
67	0x3f2eba37	0.6825289
68	0x3e6aea23	0.22940879
69	0xbd25a62d	-0.04044168
70	0xbe63530f	-0.22199653
71	0x3dfde726	0.12397604
72	0xbd91d32b	-0.07120355
73	0xbd2d2aa5	-0.042276997
74	0xbe081f96	-0.13293299
75	0x3b3532da	0.0027648718
76	0xbd5efe80	-0.05444193
77	0xbdd27fc4	-0.102782756
78	0x3d8a68ab	0.06758245
79	0x3dbf2f07	0.09335142
80	0xbcfef845	-0.031124244
81	0x3d89fee3	0.06738069
82	0xbda088e6	-0.07838611
83	0x3d324b90	0.043529093
84	0xbe49b346	-0.19697294
85	0xbad925c9	-0.0016567047
86	0xbe44a101	-0.19202043
87	0xbcf31b39	-0.029676067
88	0xbc87815a	-0.016541172
89	0x3e6245ad	0.22096892
90	0xbe4cea9f	-0.20011376
91	0x3d5db111	0.05412394
92	0xbe99825a	-0.29982263
93	0xbd698ce3	-0.057019126
94	0xbc15bca5	-0.009139215
95	0xbdbf6651	-0.09345687
96	0x3d9bdd35	0.07610551
97	0xbe0983bf	-0.13429163
98	0xbd697ca6	-0.05700364
99	0xbd9aa734	-0.07551423
100	0xbdfd2133	-0.12359848
101	0xbd972a52	-0.07381119
102	0x3d9cf2b6	0.07663481
103	0x3d88fa5b	0.066883765
104	0xbd4b88e1	-0.049691085
105	0x3c10643e	0.008812962
106	0x3e1f2c6d	0.15544291
107	0x3e08bce1	0.13353302
108	0xbe11754b	-0.142049
109	0xbde52d44	-0.11190274
110	0xbcdbe8af	-0.02684435
111	0xbca9e044	-0.020736821
112	0xbccb2da1	-0.024802031
113	0xbe4c0a8f	-0.19925903
114	0x3e1ecdf6	0.15508255
115	0xbaf6f3a2	-0.0018840919
116	0xbdbf3fc1	-0.09338332
117	0x3c868101	0.016418936
118	0xbd2e5dd3	-0.042569946
119	0x3dda0895	0.10646168
120	0x3c71f622	0.014768155
121	0x3d872c51	0.066002496
122	0xbe16c1f3	-0.14722423
123	0x3d55fc83	0.052242767
124	0x3e7b69bc	0.24552053
125	0x3da372ec	0.07980904
126	0xbe3998a9	-0.18124641
127	0x3b93fa4d	0.004515922
128	0x3dc9a32a	0.09845574
129	0x3bdb39ce	0.0066902405
130	0x3d8c9922	0.06865145
131	0xbd8d5166	-0.06900291
132	0xbdd63a59	-0.10460348
133	0xbb6538df	-0.0034976525
134	0x3ce58c98	0.028021142
135	0xbc01daf5	-0.007925739
136	0x3d964bba	0.073386624
137	0xbe2dcd7b	-0.16972916
138	0xbca33b14	-0.019925632
139	0xbdc086a7	-0.09400683
140	0xbd4dac45	-0.050213117
141	0xbe2148d6	-0.15750441
142	0x3d2f91a2	0.042863496
143	0xbd05499f	-0.032540914
144	0x3e01c868	0.12674105
145	0x3c01875c	0.007905807
146	0xbebe5bf4	-0.3717953
147	0x3c0839bc	0.008314546
148	0x3d101e79	0.03518531
149	0xbcb6389c	-0.02224379
150	0xbcef1fc6	-0.029189955
151	0xbccc62e4	-0.024949498
152	0xbe1f23ac	-0.15540951
153	0xbd96fd09	-0.073724814
154	0xbc5161ea	-0.012779692
155	0xbd81096f	-0.063006274
156	0x3d12cd76	0.035840474
157	0xbd144ac7	-0.036204126
158	0xbeb57e29	-0.35447815
159	0xbd366b30	-0.044535816
160	0xbe189b0c	-0.14902896
161	0x3d7a182e	0.061058216
162	0x3e280f44	0.16412073
163	0x3dc6ff5d	0.097166754
164	0x3d403aa5	0.046930928
165	0x3d3b36b6	0.045706473
166	0x3d5f0c6d	0.05445521
167	0x3d66a14e	0.056306176
168	0x3d29d43f	0.04146218
169	0x3a925dae	0.0011166835
170	0x3ee1471f	0.43999574
171	0x3eccecbc	0.40024364
172	0xbd60e830	-0.05490893
173	0x3e04a5b2	0.12953833
174	0xbcc7172e	-0.024303045
175	0x3e0618cb	0.13095395
176	0xbca3f6ce	-0.020015147
177	0x3d3ac616	0.045599066
178	0x3c908469	0.017641263
179	0xbe016647	-0.12636672
180	0x3d6ac564	0.057317153
181	0xbe943af9	-0.28951243
182	0xbdc49bfc	-0.09600064
183	0x3d8d0b93	0.06886973
184	0x3d8c288a	0.0684367
185	0xbdcb5f99	-0.09930343
186	0x3d598acc	0.053110883
187	0xbd82c16e	-0.0638455
188	0xbcd5ee6b	-0.026114663
189	0xbd03f23c	-0.032213435
190	0x3d94ac96	0.07259481
191	0xbda54bc3	-0.08071091
192	0xbd2a36f6	-0.04155632
193	0xbdc2df37	-0.09515231
194	0xbd5bd8cf	-0.05367356
195	0xbd96570b	-0.07340821
196	0x3dadc728	0.08485252
197	0x3d6642ad	0.05621593
198	0x3d2ea5f5	0.042638738
199	0x3d000c26	0.031261586
200	0x3d5dbd54	0.054135635
201	0x3dad4b41	0.08461619
202	0xbe4a813d	-0.19775863
203	0xbd4df8ff	-0.05028629
204	0xbe124939	-0.14285745
205	0xbdfd7ae9	-0.12376959
206	0x3d368e53	0.044569325
207	0xbd8ee866	-0.0697792
208	0xbd4c3b00	-0.049860954
209	0xbc4be74c	-0.012445282
210	0x3df9092b	0.12159952
211	0x3e2e9194	0.17047721
212	0x3d50a8ec	0.050942346
213	0x3ddb7b9c	0.10716936
214	0x3d7d794d	0.06188326
215	0xbab8a8c0	-0.0014088377
216	0xbcd07e45	-0.025450835
217	0x3d551bc6	0.05202844
218	0x3e028921	0.12747623
219	0xbe0631c5	-0.13104923
220	0x3b6b1093	0.0035868033
221	0x3d82579c	0.063643664
222	0xbd7ce725	-0.061743874
223	0xbbdddf2f	-0.0067709903
224	0x3e33f1f9	0.17572774
225	0xbc0d5ff9	-0.008628839
226	0xbe170f6e	-0.1475198
227	0x3d0511d4	0.032487705
228	0xbd139d8d	-0.036038924
229	0xbe0123f2	-0.12611368
230	0xbdb7a8de	-0.08967756
231	0x3c5a0a10	0.013308063
232	0x3b9c0964	0.0047618616
233	0xbe0e4a5c	-0.13895553
234	0xbc4985a6	-0.012299931
235	0x3e470d53	0.19438677
236	0x3d58508d	0.052811194
237	0xbe19ec75	-0.15031607
238	0x3ebb6920	0.36603642
239	0x3d7a17ef	0.06105798
240	0xbe32f76d	-0.17477198
241	0x3ced97a0	0.029002964
242	0xbd559285	-0.052141685
243	0xbd23f414	-0.040027693
244	0x3e1b1205	0.15143593
245	0x3e1e4427	0.15455686
246	0xbd4d2f7f	-0.050094124
247	0xbe255cfc	-0.16148752
248	0xbec57982	-0.38569266
249	0xbde1c93e	-0.11024712
250	0xbdd58a99	-0.10426826
251	0xbdb12fcc	-0.08651695
252	0xbe78542e	-0.24250862
253	0xbce45a21	-0.027875008
254	0x3dd0dbd7	0.10198181
255	0xbed83df6	-0.42234772

fc2.bias f4 [128]
0	0xbc551d94	-0.01300754
1	0xbd39910b	-0.04530434
2	0xbb55d29e	-0.0032626758
3	0x3d02168a	0.031759776
4	0xbdf1f803	-0.118148826
5	0xbd1bc922	-0.038033612
6	0xbe958fd9	-0.2921131
7	0xbe15ce18	-0.146294
8	0x3d19cc6a	0.03754846
9	0xbd94340f	-0.07236492
10	0x3ddaa3f8	0.10675806
11	0xbe2ab1eb	-0.16669433
12	0x3dcc72ca	0.09982832
13	0x3d8a96f4	0.06767073
14	0xbe542a22	-0.20719197
15	0x3e3be30f	0.18348335
16	0xbc4e3fd1	-0.012588457
17	0xbdc317b2	-0.09526004
18	0xb80186d5	-3.088157e-05
19	0xbe200fe8	-0.15631068
20	0x3d7f5b39	0.062342856
21	0xbe28aae3	-0.16471438
22	0xbe0753cc	-0.1321556
23	0x3c1dec5c	0.009638872
24	0xbd1dadfe	-0.03849601
25	0xbe8d245b	-0.275668
26	0xbd347e4b	-0.044065755
27	0xbe5c3926	-0.21506175
28	0x3d459ee6	0.04824724
29	0x3cf6a832	0.030109499
30	0x3d845bc3	0.06462815
31	0xbae6e466	-0.0017615675
32	0xbdac2043	-0.08404591
33	0x3d6e5b2e	0.058192424
34	0xbc05c5cb	-0.008164833
35	0xbe188f78	-0.14898479
36	0xbe11490d	-0.14188023
37	0xbd1cdc83	-0.038296234
38	0x3ddffcbc	0.10936877
39	0x3c844fa2	0.016151253
40	0x3d26e28d	0.0407434
41	0x3e0b185f	0.13583516
42	0xbe8e6c93	-0.2781721
43	0xbd28ce98	-0.04121265
44	0xbd677385	-0.056506652
45	0x3c8035cf	0.015650658
46	0xbdfb8e9e	-0.122830614
47	0xbaf40379	-0.0018616758
48	0x3e005a48	0.1253444
49	0x3d8d4dd2	0.06899609
50	0xbcd12ed6	-0.025535028
51	0x3e01a958	0.12662256
52	0x3cc248f7	0.023716433
53	0x3b2265b8	0.0024779867
54	0xbd802c3a	-0.062584355
55	0xbca05774	-0.01957295
56	0x3ca33f22	0.019927565
57	0xbe491b8d	-0.19639416
58	0xbe710923	-0.23538642
59	0xbd84553b	-0.06461569
60	0x3dbda5d5	0.092601456
61	0xbc2dfebe	-0.010619817
62	0xbe114afc	-0.1418876
63	0x3d2f0b97	0.042735662
64	0xbc445146	-0.011982268
65	0x3d41d5fe	0.04732322
66	0xbd52fab9	-0.05150864
67	0xbc0d82e2	-0.008637162
68	0xbe2e1e6b	-0.17003791
69	0xbd60f91c	-0.05492507
70	0x3dab1f21	0.08355547
71	0xbd0ba61c	-0.03409396
72	0xbd371097	-0.044693556
73	0xbcfe0205	-0.031006822
74	0xbc1d8f25	-0.009616648
75	0xbd8ba91d	-0.06819365
76	0xbc3c89cb	-0.011507462
77	0xbc880330	-0.016603082
78	0x3e45f830	0.19332957
79	0xbcab1d3c	-0.020887963
80	0x3c9cd7ed	0.01914593
81	0xbd591b8d	-0.05300479
82	0xbe6f0e81	-0.23345377
83	0xbe3c614e	-0.18396494
84	0x3ded93db	0.11600467
85	0x3d872e8b	0.06600674
86	0xbde79c92	-0.1130916
87	0xbb85a7a2	-0.0040788213
88	0x3d8ddd4a	0.06926973
89	0xbd86cc99	-0.06581993
90	0x3d567935	0.052361686
91	0xbc18aa6c	-0.0093179755
92	0xbced2824	-0.028949805
93	0x3af35965	0.001856607
94	0xbc1e6e10	-0.009669796
95	0x3d4bcb08	0.049754173
96	0x3d34064e	0.043951325
97	0xbd92e003	-0.07171633
98	0xbd91c2b9	-0.071172185
99	0xbdbb1c77	-0.091362886
100	0xbdb76e6d	-0.08956609
101	0xbc194f65	-0.009357308
102	0x3c864109	0.016388433
103	0xbee64104	-0.44971478
104	0x3d8a2609	0.06745536
105	0x3e4e2db0	0.20134616
106	0xbce3cac1	-0.027806642
107	0xbd95d1fe	-0.073154435
108	0x3e0d6796	0.13809046
109	0xbe70cd8c	-0.2351591
110	0x3ca1efa0	0.019767582
111	0xbe31bd7d	-0.1735744
112	0x3d65d4ba	0.056111075
113	0xbe209051	-0.15680052
114	0x3d4b89f1	0.049692098
115	0xbd82f702	-0.06394769
116	0x3d1f2cd6	0.03886112
117	0xbe9d7d1b	-0.3075951
118	0x3c9552ef	0.018228022
119	0xbe244a77	-0.16044031
120	0x3d21a612	0.039465018
121	0xbbbd7180	-0.0057813525
122	0xbb3ff45c	-0.0029289937
123	0x3d12cfa5	0.035842557
124	0x3d82b1a9	0.06381542
125	0xbd45158b	-0.048116248
126	0xbe908144	-0.28223622
127	0x3d898813	0.06715407

fc3.weight f4 [2, 128]
0	0xbdcc27e5	-0.09968547
1	0x3f065afc	0.5248258
2	0x3db335c6	0.08750491
3	0xbdbbb815	-0.0916597
4	0x3e637763	0.22213511
5	0xbf8121ce	-1.0088441
6	0xbfc5af5c	-1.544414
7	0xbda61c52	-0.081108704
8	0xbf65b6e2	-0.8973218
9	0x3eb5b1a9	0.35487106
10	0x3f270965	0.6524871
11	0x3e42970e	0.19002935
12	0xbd3d933f	-0.046283003
13	0xbd68a483	-0.056797516
14	0x3d114e3c	0.035475
15	0xbb18e861	-0.0023331868
16	0xbe92f8cc	-0.28705442
17	0x3fa9ebe9	1.3275119
18	0xbebcdc2e	-0.36886734
19	0x3f4fd941	0.8119088
20	0x3f1426f4	0.5787194
21	0xbe66610c	-0.22497958
22	0x3f39b035	0.72534496
23	0xbe60a099	-0.21936263
24	0x3e1eaa62	0.15494683
25	0x3eefe14c	0.46851575
26	0x3e528605	0.20558937
27	0x3e082bcc	0.13297957
28	0x3e2b5410	0.16731286
29	0x3ea2d67e	0.3180427
30	0xbee215b5	-0.44157186
31	0xbecf5a0f	-0.40498397
32	0x3fa18e2a	1.262151
33	0xbde6506f	-0.1124581
34	0x3e7a6f2e	0.24456474
35	0xbd21f4c5	-0.03954007
36	0xbe7a5f7f	-0.24450491
37	0xbea81e7c	-0.32835758
38	0xbe7a7377	-0.24458109
39	0xbe219c49	-0.15782274
40	0x3f1fa5b4	0.6236222
41	0xbcbcf96e	-0.023068156
42	0xbf045478	-0.5169139
43	0xbefa2bab	-0.4886144
44	0x3e27e915	0.16397507
45	0x3ecd5dae	0.40110534
46	0xbee70845	-0.45123497
47	0xbe14b157	-0.14520775
48	0x3e5dd73d	0.21664138
49	0x3ed9aa07	0.42512533
50	0x3c5f2c9b	0.013621475
51	0x3e23351a	0.15938225
52	0x3dad96b1	0.08476008
53	0x3f1c08d4	0.6095097
54	0x3ee6fa30	0.45112753
55	0xbd2509a9	-0.040292416
56	0xbdcc9f71	-0.099913485
57	0x3f46821d	0.7754229
58	0x3e97011d	0.29493037
59	0xc02021c1	-2.5020602
60	0x3e943d1c	0.28952873
61	0x3ed0f5bd	0.40812483
62	0xbe023ced	-0.12718554
63	0x3e948183	0.2900506
64	0xbfabd7d8	-1.3425245
65	0x3db0fcf3	0.08641996
66	0x3f5ca21a	0.8618485
67	0x3e4918dc	0.1963839
68	0xbe0d7239	-0.13813104
69	0x3ef62387	0.4807398
70	0xbfa2e155	-1.2725016
71	0x3ea73398	0.3265655
72	0x3e358b15	0.17728837
73	0xbdda8c54	-0.10671297
74	0xbea33fb6	-0.31884545
75	0x3e871f98	0.26391292
76	0x3f15c476	0.585029
77	0xbe876bd2	-0.26449448
78	0xbe462272	-0.19349077
79	0x3f9074a4	1.1285596
80	0x3ed90247	0.4238455
81	0x3f9e34dd	1.2359883
82	0xbe874480	-0.2641945
83	0x3ff66369	1.9249088
84	0xbe4531bd	-0.19257255
85	0xbc1bae6e	-0.0095020365
86	0xbea89f54	-0.32934058
87	0x3e2dc311	0.16968943
88	0xbde86251	-0.11346877
89	0xbdcc194c	-0.099657625
90	0x3ba6dc66	0.0050921915
91	0x3f8e1c6a	1.1102421
92	0x3f20906a	0.6272036
93	0x3ee1eae6	0.44124526
94	0x3e5eeaf1	0.2176931
95	0x3f054e94	0.52073026
96	0xbef38c4d	-0.47567979
97	0x3ef98d94	0.48740828
98	0x3eed2713	0.46318874
99	0xbe3e1402	-0.1856232
100	0xbfbc445b	-1.470836
101	0x3dd21e19	0.10259647
102	0xbf1dd48a	-0.61652434
103	0x3ba748fb	0.0051051355
104	0x3c9218c7	0.01783408
105	0xbd1109b9	-0.035409663
106	0x3e20ed9a	0.15715638
107	0xbd9f2e2d	-0.07772479
108	0xbdde6dff	-0.10860824
109	0x3f33e99d	0.7027834
110	0x3de1d434	0.11026803
111	0x3ec957a6	0.39324683
112	0xbd98f1f1	-0.07468022
113	0x3e81b185	0.2533075
114	0xbe3ca220	-0.18421221
115	0x3f2bd75b	0.6712548
116	0x3ea9e341	0.33181193
117	0x3f81cb43	1.0140156
118	0xbd68e68d	-0.056860495
119	0xc0384890	-2.8794289
120	0xbe64403f	-0.22290133
121	0xbeca4c3d	-0.3951129
122	0xbe2c4b9d	-0.16825719
123	0x3e82f94f	0.25580832
124	0x3e761923	0.24033026
125	0x3f49b7a5	0.78795844
126	0x3ef0fea3	0.47069272
127	0x3e6e8dab	0.2329623
128	0x3d8d9458	0.0691306
129	0x3c591893	0.013250488
130	0xbf9b7198	-1.2144041
131	0xbf5363a4	-0.82573915
132	0x3dde00fa	0.1084003
133	0xbf1bbe74	-0.60837483
134	0xbeb465b9	-0.35233858
135	0x3e6b2fed	0.22967501
136	0xba7a62bb	-0.0009551455
137	0x3c6ba791	0.014383213
138	0xbebca145	-0.3684179
139	0x3f1f2e9e	0.6218051
140	0x3deedb28	0.116628945
141	0xbf0ebd21	-0.5575734
142	0x3f300ee8	0.68772745
143	0xbea3e6d9	-0.3201206
144	0x3d2ceced	0.042218138
145	0x3e601dc8	0.2188636
146	0x3e1d7739	0.15377511
147	0x3eb1838b	0.34670672
148	0xbd9b2962	-0.075762525
149	0x3f012a7c	0.5045545
150	0x3f08708d	0.5329674
151	0xc03f45f2	-2.9886441
152	0x3d9c01f4	0.0761756
153	0x3ed63929	0.41840485
154	0xbf615d32	-0.8803283
155	0x3f278e09	0.65451103
156	0xbe634ba9	-0.22196831
157	0x3e8775bc	0.26457012
158	0xbe58efa7	-0.2118517
159	0xbcf3761a	-0.029719401
160	0xbd0a4fd5	-0.03376754
161	0xbe29a354	-0.16566211
162	0x3f1c3b1b	0.6102769
163	0xc007cdee	-2.121944
164	0x3f12219b	0.5708253
165	0xbae71ae3	-0.0017631914
166	0xbe1cf447	-0.1532756
167	0x3e854e07	0.26036093
168	0xbe66737d	-0.22504993
169	0xbf2a7329	-0.6658197
170	0x3f17b208	0.5925603
171	0xbf006850	-0.5015917
172	0xbe036d18	-0.12834585
173	0xbef07c61	-0.46969894
174	0xbfd93d8e	-1.697191
175	0x3e059332	0.13044432
176	0xbd695ac8	-0.05697134
177	0x3df70250	0.12060988
178	0xbf88b448	-1.0680017
179	0xbccf1ce3	-0.025282329
180	0xbe80b52b	-0.2513822
181	0x3fa5d95f	1.2956961
182	0x3d252036	0.040313922
183	0x3e425c72	0.18980578
184	0xbb64bcd1	-0.0034902582
185	0x3e6a7148	0.22894776
186	0xbf9fd0f3	-1.2485641
187	0xbe994cc1	-0.2994137
188	0xbe400a71	-0.18753983
189	0x3e0cddf4	0.13756543
190	0x3e343f4f	0.17602275
191	0xbb6c6b93	-0.0036074861
192	0x3f6585d2	0.8965732
193	0x3e9d9ed7	0.30785248
194	0xbc28e69f	-0.010308891
195	0xbf0c841d	-0.5488909
196	0xc09847a5	-4.7587457
197	0x3de75297	0.1129505
198	0xbda799ac	-0.081836075
199	0xbf5ff65a	-0.8748528
200	0x3d889de8	0.06670743
201	0xbe9deb0a	-0.30843383
202	0xbd2092e0	-0.03920257
203	0x3e9e700d	0.30944863
204	0x3e6c82e2	0.23096803
205	0xbf78382d	-0.9696072
206	0x3c2cb9e6	0.0105423685
207	0x3e0fc5ca	0.14040294
208	0xbe4bc744	-0.19900233
209	0x3ebc4178	0.367687
210	0x3da9ef18	0.08297557
211	0x3ece01ad	0.40235654
212	0xbc6e5649	-0.014546939
213	0xbe80075a	-0.2500561
214	0x3e0f8a47	0.14017592
215	0xbe2ffa70	-0.17185378
216	0xbe12b989	-0.14328589
217	0xbe475e7c	-0.19469637
218	0xbf5aeb88	-0.8551564
219	0xbd0f22b7	-0.034945216
220	0xbf955fa7	-1.1669816
221	0x3dc4519a	0.09585877
222	0x3f2ae35b	0.66753167
223	0x3e05085a	0.12991467
224	0x3dfd15f6	0.12357704
225	0x3f332ecc	0.6999328
226	0xbd955c39	-0.07292981
227	0x3d81e19c	0.0634186
228	0x3ea751a1	0.32679465
229	0xbecc1c37	-0.39865276
230	0xbed33e05	-0.41258255
231	0x3f436015	0.76318485
232	0xbd364bcc	-0.04450588
233	0xbf3533df	-0.70782274
234	0xbdd3d148	-0.103426516
235	0x3f0e9b3e	0.5570563
236	0xbdb6193a	-0.0889153
237	0xbf9319ff	-1.1492308
238	0xbf0b9ff7	-0.5454096
239	0x3f75d81e	0.96032894
240	0xbed748a6	-0.42047614
241	0xbe322bb6	-0.17399487
242	0xbef2ed0e	-0.47446483
243	0x3efa8fc6	0.48937815
244	0xbe8355e6	-0.25651473
245	0x3fa75215	1.3071924
246	0x3f3ae4ea	0.73005545
247	0xbeabc8af	-0.33551547
248	0xbfadb5a6	-1.357106
249	0xbf4916e2	-0.7855054
250	0xbbe1881f	-0.006882682
251	0xbd811060	-0.063019514
252	0x3ebdfca9	0.37106827
253	0xbe0f549d	-0.13997121
254	0x3de81d61	0.113337286
255	0xbfef24b9	-1.8683082

fc3.bias f4 [2]
0	0xbdae6366	-0.085150525
1	0xbe082dec	-0.13298768
