checkpoint_critic-t6.pth (torch_old, 159804 bytes, 5 tensors)

fcs1.weight f4 [256, 24]
00000000: 1d6d 773f 7d57 bd3e 14ee bdbd 0e23 8b3e
00000010: dd1a 8dbd dfbb 50c0 713d 0bbe a104 9b3e
00000020: 8490 943f ea85 1c3f 067e 19be 142c a4be
00000030: bed5 78be 5241 0cc0 3435 34be 9418 bcbe
00000040: 017f b73f 91d6 933e 8957 7ebc 5369 543f
00000050: a921 1ebf 44be 34bf c80d 0dbc 603f 633f
00000060: 440c 5ebf 1578 493f 7efc b8bc 9e84 7b3f
00000070: 45b4 80bf 5397 39bf c30b aa3c 263d 783f
00000080: 6c25 113e b53a 903f 95f5 dbbc 1980 ef3d
00000090: d850 c5be 25e4 75c0 9723 8a3d 627a c33d
000000a0: cfa5 043f d4fe 9b3f e7d8 dabd bcbd 053e
000000b0: 3695 a43f c71e 87c0 7973 c7bd b355 673e
000000c0: 2bb7 f53c 3f18 733e d3c2 a7be 01f6 903e
000000d0: 8f1c 553d bc8a bbbe 2c18 97be 62e6 943e
000000e0: 0a49 053f ca7e ad3d ede5 403e fcaa ecbd
000000f0: 78bc a5be ee0f b5bf ce50 5c3e bc51 62be
00000100: 1a04 6d3f 7708 fabd 2599 c9ba 65ed debe
00000110: 6a3a 23bf 6d7e c4c0 960d b5bd b67a 01bf
00000120: c7e9 203f 5de1 da3e 49aa 89bd ce0c a0bd
00000130: f52c 073e e0aa 6d3e 1d59 13bd 90d5 fbbb
00000140: c624 473f 805c da3e fa42 07bd a270 693e
00000150: a857 923d f2fa 07bf 437c 2ebd 3997 923e
00000160: 23c9 5a3f a149 e03e b9f6 7abd 05f3 f8bd
00000170: 1309 8dbe 3743 58bf f6b7 cc3c 4581 c7bd
00000180: 817b c13d abdd d8bf 6842 f6bc 0808 653c
00000190: 13aa 81bf f934 45bf 325d 4c3d 6167 ac3d
000001a0: 6d2f 923e 1a78 e3bf 7aa1 ba3c ae1a 22bd
000001b0: a49b 05bf c872 edbf 5968 d8bb c05b 0fbd
000001c0: 2ed8 233f 067a edbf 8b17 4abc 2601 523e
000001d0: 0516 a33e 001a 0340 e115 3bbd 290c 5e3e
000001e0: d277 ea3f cb2e 40bf 9b0e 2abe d087 ddbd
000001f0: cb4c 463f f610 8c3e 1683 f0bd 77e3 8cbd
00000200: f601 0140 9152 f0be f205 ed3c 0b04 00bf
00000210: cbbc 853f 9613 a83d c2af a2bc 8832 0dbf
00000220: e68e 0940 d974 d9bd cc48 be3c 9ef2 dfbd
00000230: 7d3b c93f 256d babe 156e b23d 3696 21be
00000240: 7cc2 373f 4041 573f 9a4f 5ebe 82f0 c6bd
00000250: f03d a73f db1f ccbf 39c1 29be 82fe ddbd
00000260: 6ef9 a63f aaaf be3e 3bbd 0dbe ba17 11bf
00000270: cacb 5a3f b886 22bf 7632 b6bd 6ee1 2abf
00000280: 565a c83f bd4f 123f c1d1 b93d 0a1d 973f
00000290: d85b df3e c5e1 593e 1c8c 613d d9f2 8f3f
000002a0: 40fb 4a3f bc2b 863f 41f0 8cbd 5929 e3bd
000002b0: 31db febd 7d92 a3be 5642 79bd 448f 47bd
000002c0: d2f3 8b3f 8b95 7c3f 6fac 5bbd 5ab9 0cbe
000002d0: 1a1a 213e 7b50 f4be 992d 7abd 2b92 32be
000002e0: 6940 823f 87b0 443f 80aa 06bd 7022 7d3d
000002f0: 437b b33e bbc4 c4bd 6b6a a2bd 679b 1a3e
00000300: e835 0440 9739 5e3f 1ace 2dbe 1f9f 66bc
00000310: dccf dabe 4fea 143e 5188 4ebe 9d2d 92bc
00000320: 9e24 703f 3733 8f3f 171b a4bc 2d57 b33e
00000330: 2131 a73d b8b0 93bf 08aa 913d fd9f 913e
00000340: 2842 9f3f f8b8 293f c67b 0c3e f600 433e
00000350: 0a66 e0be 0fc9 c5c0 098b 5b3e 9f9b 443e
00000360: beb5 b2be e2e2 78be 99e8 44bb b2e3 c93e
00000370: 6a5c c53f 82cf 68bf e884 ee3c cee6 003f
00000380: 6006 a1bd c5ba 23be b960 933b 9537 92bd
00000390: 6307 da3e 433d 953e 9827 f63b 604b 33bc
000003a0: db99 a73e 5f99 00bf 0e57 2ebd b24f a73d
000003b0: 4ecd 97bf c3d2 ab3e 69b4 9d3c fe1b e63c
000003c0: 593c 10bf c59d 1c40 cb25 aa3d a69d 893f
000003d0: 5b0b f93e 217d d3bf e870 a33d 0a1e 813f
000003e0: 9ce2 9f3f 3973 4e40 b7f4 a6bc ca43 e73e
000003f0: e874 f73e 0117 c3bf ee00 c5ba 0249 d13e
0.9665087 0.3698081 -0.092739254 0.27175182 -0.068898894 -3.2614667 -0.13597657 0.3027697
1.1606603 0.61141837 -0.1498948 -0.3206488 -0.24300286 -2.1914868 -0.1759842 -0.36737502
1.4335634 0.2887464 -0.0155238 0.8297321 -0.6177011 -0.7060282 -0.008609243 0.8876858
-0.86737466 0.78698856 -0.022581335 0.9824923 -1.0055014 -0.7249653 0.020757562 0.96968305
0.14174432 1.1267916 -0.026850501 0.116943546 -0.3853824 -3.8420498 0.067450695 0.09544827
0.51815504 1.2187142 -0.10685902 0.13060659 1.2858036 -4.222507 -0.097388215 0.22591285
0.029994568 0.23739718 -0.32765827 0.28312686 0.05202919 -0.36629283 -0.2951063 0.29082018
0.52064574 0.08471449 0.1883771 -0.1155605 -0.32370353 -1.4145486 0.215152 -0.22101492
0.92584383 -0.12208646 -0.0015380724 -0.43540493 -0.6376101 -6.140433 -0.08840482 -0.5057787
0.62856716 0.42750064 -0.067219324 -0.07814942 0.13200743 0.23209715 -0.035973657 -0.0076853707
0.77790487 0.42648697 -0.03302286 0.22796872 0.07145625 -0.5311729 -0.042598974 0.28631
0.8546316 0.43806174 -0.06127045 -0.12155727 -0.27545986 -0.8447756 0.024990063 -0.09741453
0.094473846 -1.6942648 -0.030060962 0.013978966 -1.0130028 -0.77033955 0.049893565 0.084181555
0.28551808 -1.7771027 0.022782076 -0.039576225 -0.52190614 -1.8550653 -0.006604236 -0.03499961
0.6400174 -1.8552864 -0.012334715 0.2050825 0.31852737 2.048462 -0.045675162 0.21684326
1.8317816 -0.750714 -0.16607134 -0.1081692 0.77460927 0.2735669 -0.11743753 -0.06879323
2.0157447 -0.46937993 0.028933499 -0.5000617 1.044824 0.08206861 -0.019859198 -0.5515523
2.1493468 -0.1061799 0.023228072 -0.109349474 1.5721279 -0.36411396 0.08712403 -0.15779957
0.71781135 0.8408394 -0.21710053 -0.09713842 1.3065777 -1.5947222 -0.16577615 -0.10839559
1.304487 0.37243396 -0.13841717 -0.5667683 0.8546721 -0.63486814 -0.088963434 -0.6675023
1.5652568 0.5715292 0.090732105 1.1805737 0.4362476 0.2127753 0.05506526 1.1245986
0.7928963 1.0482097 -0.06881762 -0.11091871 -0.12444151 -0.319477 -0.06085428 -0.048720613
1.0933783 0.98665684 -0.053631242 -0.13742581 0.15732613 -0.47717652 -0.06107864 -0.17438571
1.0175906 0.7683186 -0.032877445 0.06180042 0.3505498 -0.09607836 -0.07930454 0.15098344
2.0657902 0.86806625 -0.16973153 -0.014076023 -0.4273671 0.14542507 -0.20169188 -0.017844016
0.93805873 1.1187505 -0.020032449 0.35027447 0.081636675 -1.1538305 0.07112509 0.28442374
1.2442064 0.66297865 0.13719091 0.19043335 -0.4382785 -6.1807933 0.21439756 0.1919999
-0.34904283 -0.24305299 -0.0030045866 0.3943153 1.5418828 -0.9094163 0.029116109 0.5035218
-0.07862544 -0.15989216 0.004497614 -0.07139508 0.4258376 0.291483 0.007512044 -0.010943264
0.3273457 -0.50234026 -0.04256349 0.081694975 -1.1859529 0.33559236 0.019251065 0.02808952
-0.56342083 2.4471295 0.0830799 1.0751235 0.48641476 -1.6522561 0.079805195 1.0087292
1.2491031 3.2257826 -0.020380361 0.45168906 0.4833138 -1.5241395 -0.0015030184 0.40876013

fcs1.bias f4 [256]
00000000: c594 44bf fb54 62be 6461 ee3b aac3 3abf
00000010: 2c23 7abf b1eb f5bf 16bf 41c0 3f2f 30bf
00000020: bf91 7dbe 3ca2 0cc0 cba0 27bf 2554 04c0
00000030: aada a5bf b6c3 1ac0 3f45 09c0 ec3b 51c0
00000040: 3f37 8ebf dea8 25c0 e0d9 87be d314 3abf
00000050: fd42 3ec0 5540 45c0 8262 eebf c601 efbe
00000060: 43f9 a3bf 045c 28bf 5ef3 91bf 4431 7bbf
00000070: 652f 8bbf d43e 803f a645 4ac0 1091 42c0
00000080: f46c 95c0 ba2a cbbf 296a 81bf a8d9 b33e
00000090: c4b2 86c0 4fc7 d7bf 773c a7bf a3cd 76be
000000a0: dd2c dbbf 45ae c9bf 7593 97bf ba14 d1bf
000000b0: df60 babf 27a7 abbe e956 36bf 76db a4bf
000000c0: 14bb 0440 b6a7 59bf f606 51c0 f8ab 99bf
000000d0: 73c0 d1bf f29b 88c0 d7cd 81bf 6f30 e93d
000000e0: 0075 06c0 79cd 11bf 2410 24be e948 b0bf
000000f0: c8dc 94bf 2461 1240 e04b 25be bfb9 93bf
00000100: 365f c3be d4b5 d3bf 5364 1abf 1e98 01c0
00000110: 46a8 4ac0 1e88 0cc0 9bd7 0240 999b fbbe
00000120: 004f 71c0 549b a3bf 3de5 cabf e78d bcbd
00000130: 4d9d 80bf ca84 d6bf 2b2b a3bd c509 95bf
00000140: 97be 02c0 d96b 5bbf e14d 18bf 59c3 97bf
00000150: 7e1f 8cbf 45e3 08c0 b364 0ebe c23b 27bf
00000160: 0bf2 d0bf 4ce6 55bf 9563 643f 5229 c2bf
00000170: 9a8c 883e 743b 3ebf 276c 0cc0 6b5d 8bbf
00000180: 4927 1d3f 7f85 7cbf 7ccd 9ebf 94a7 7bbf
00000190: 45ef 2abe 0d49 c1be 25e7 e8bf 97e4 8abf
000001a0: a1c3 c5bf e7a7 98bf 16e8 04c0 a8ee 6abf
000001b0: 778e c0bf 68ed 93bf 0dd3 0bc0 720f a8bf
000001c0: e288 03c0 c5b9 77bf aab4 d4be 09de 07c0
000001d0: b1b1 cbbf 9c0d 23c0 181c 8cbf a63d 61bf
000001e0: 427a c7bd 4711 89bf f86b ce3c cdc4 92bf
000001f0: 9113 afbf cc65 57bf 27a3 28bf 4c7c 8fbf
00000200: 856c c0bf 6c10 8abf fb6b 423e e5f9 73bf
00000210: 129c a6bf bf7c 24be d286 e5bf 6fc8 1dc0
00000220: 3fb1 bbbf aaf4 5bc0 a449 8cbe 5b97 c1bf
00000230: df29 b1bf c321 9dbf 98f6 24bf 6f84 a9bf
00000240: 6f41 57bf 5cea 16c0 7c8d 75bf 4341 aabf
00000250: 1e47 87be 6b5e 9fbf 4a46 60bf a3ce 91bf
00000260: 4383 0bc0 ca73 d2bf ac9b a8bf d106 d2bf
00000270: d87b 633e 6e24 0cc0 ffec 83bf 5c03 0bc0
00000280: 4773 acbc b066 4bc0 b2bc 2abf fcee 8abf
00000290: 2816 2ac0 dd55 37c0 b9cc f6bf 5cb8 ddbe
000002a0: e3fa c0bf eeba 1cc0 611a cabf d14f 4ac0
000002b0: 242d e0bf 7824 89bf 9b40 89bf 275f d8bf
000002c0: 7d84 afbf 22e3 acbf 2f5f acbf 5318 a1bf
000002d0: f30a 413e 6a73 6ac0 f435 19c0 b75d f6bf
000002e0: b2ef b2bf c30f a7bf fb89 adbe 7788 f2bd
000002f0: be84 b6bf 2b30 23bf 1a29 60bf 2f60 a8bf
00000300: 340a dcbd 3b3c a2bf f912 55be 07cb 30c0
00000310: 1eb3 b3bf da97 11c0 0bea 99bf a79f 453f
00000320: d1f3 f9bf 80ef 84bf 473b a3bf 73ed a4bd
00000330: bf45 c4bf 89a3 263d a0b0 933e d09f 7cc0
00000340: 01f7 10c0 04f0 5fbf be6f fabf 7a9f 44bf
00000350: e11d 80bf c05e 17be ae65 19c0 9593 86bf
00000360: d4cb 9abf 2dfa cabf 741e 9bbe c432 e3be
00000370: 5bed e1bf 08ef adbf 2df7 8abf 5002 64bf
00000380: 19d4 a0be 2bc4 86bf dd1f 01c0 8b15 2fbf
00000390: 9567 5cbf 8543 57bf 19ac dfbf 9513 24bf
000003a0: ad21 2fbe 6931 27c0 944a 11bf fed3 11bf
000003b0: 154a 9ebf 785e 84bf cd68 a1bf e78a 14bf
000003c0: 039b b5be 152d bbbf 87d8 10c0 6786 f8be
000003d0: 1af3 e4bf beb0 cebf 763f 94bf a56a a5bf
000003e0: 227c 63bf 1cf1 c8be 8a5a a6bf 42a7 d0bf
000003f0: 486b 62bf d8f3 a1be bdc6 d2bf 6731 06bf
-0.76789504 -0.2210273 0.0072747935 -0.7295481 -0.9770992 -1.9212552 -3.027288 -0.6882209
-0.24762629 -2.197402 -0.65479726 -2.0676358 -1.2957356 -2.4181952 -2.1448514 -3.2692823
-1.111061 -2.5884318 -0.26533413 -0.72688025 -2.9728386 -3.0820515 -1.8623812 -0.4668104
-1.2810444 -0.65765405 -1.1402395 -0.9812205 -1.0873839 1.0019174 -3.160501 -3.040104
-4.66955 -1.5872414 -1.0110523 0.35126996 -4.209322 -1.6857699 -1.3065327 -0.24101882
-1.7123066 -1.5756308 -1.1841875 -1.633445 -1.4560813 -0.33525965 -0.71226364 -1.2879474
2.0739183 -0.8502153 -3.2660499 -1.2005606 -1.6386856 -4.2690363 -1.0140942 0.11386191
-2.100891 -0.5695415 -0.16021782 -1.377225 -1.1629877 2.287179 -0.16142225 -1.154106
-0.38158578 -1.6539865 -0.6030933 -2.0249095 -3.1665206 -2.195808 2.0444095 -0.4914215
-3.7704468 -1.2781777 -1.5851208 -0.09206753 -1.0048004 -1.6759274 -0.07967218 -1.1643606
-2.0428827 -0.8571144 -0.59493834 -1.185649 -1.0947111 -2.1388714 -0.13905601 -0.6532556
-1.6323866 -0.8355453 0.8921445 -1.516886 0.2666977 -0.7430947 -2.194101 -1.0887884
0.6138807 -0.986412 -1.2406459 -0.9830258 -0.16692837 -0.37751046 -1.819554 -1.085101
-1.5450326 -1.192624 -2.0766654 -0.9177041 -1.5043477 -1.1556826 -2.1847565 -1.3129714
-2.0552297 -0.96767837 -0.41544086 -2.122927 -1.5913602 -2.5477057 -1.0946074 -0.87984693
-0.09740116 -1.0708398 0.025197968 -1.1466309 -1.3677846 -0.84139705 -0.6587395 -1.1209807
-1.5033118 -1.0786262 0.18986504 -0.95303184 -1.3016379 -0.16063212 -1.7931769 -2.4653585
-1.4663466 -3.436808 -0.27399933 -1.5124315 -1.3840903 -1.2275928 -0.6443877 -1.324354
-0.8408422 -2.3580542 -0.95919013 -1.3301166 -0.26421446 -1.2450689 -0.8760725 -1.1391186
-2.1798866 -1.6441586 -1.3172507 -1.640833 0.22215211 -2.1897235 -1.03067 -2.17208
-0.021051062 -3.1781425 -0.66694176 -1.0854182 -2.6576023 -2.8646157 -1.9281226 -0.43304718
-1.5076565 -2.4489093 -1.57893 -3.1611216 -1.7513776 -1.0714254 -1.0722841 -1.6904038
-1.3712307 -1.3506815 -1.3466548 -1.2585548 0.18851833 -3.6632943 -2.393918 -1.924735
-1.3979399 -1.3051685 -0.33894333 -0.11842435 -1.425926 -0.63745373 -0.87562716 -1.3154353
-0.107441336 -1.2674631 -0.20808019 -2.7623918 -1.4039037 -2.2748933 -1.2024549 0.77196735
-1.9527532 -1.038559 -1.2752465 -0.08053102 -1.5333785 0.040683303 0.28845692 -3.9472542
-2.265076 -0.8747561 -1.9565351 -0.7680584 -1.0009118 -0.14782238 -2.396831 -1.0513788
-1.2093453 -1.5857598 -0.3029667 -0.4437467 -1.765056 -1.3588572 -1.0856682 -0.8906603
-0.31411818 -1.0528616 -2.0175698 -0.68392247 -0.86095554 -0.840874 -1.7474395 -0.6409238
-0.1710269 -2.6123908 -0.5675442 -0.569641 -1.2366358 -1.034133 -1.2610108 -0.5802445
-0.35469827 -1.4623133 -2.2632158 -0.4854004 -1.7886689 -1.6147687 -1.1581867 -1.292317
-0.88861287 -0.39246452 -1.299638 -1.6301043 -0.8844495 -0.3163135 -1.64669 -0.5241913

fc2.weight f4 [128, 258]
00000000: 77bf 7abd 0324 21b8 d142 40bd 8a31 d43c
00000010: be54 27ba 6e8e edbd 5383 07bd 7eed 153d
00000020: 2af2 e63c 7a3f 343d 5f50 e6bd 4773 083d
00000030: bec0 c5bd 54a5 0fbe 905c 06be f532 54bd
00000040: 52b2 73bd 7bf6 1cbd 3fd9 1bbd cf1c 35be
00000050: 2ec9 21bc d20a a5bd 5dee f2bd 1911 23bc
00000060: 82ee 7bbd 8ef6 1d3d 8d35 14bd e3cd 333c
00000070: 5244 833d e90a 64bd 9179 54bc 495b 54be
00000080: c401 943d 2cb9 fcbd 3407 503d 9906 fe3a
00000090: 486e 2e3d 1152 0a3c ee5a 6c3d a551 17be
000000a0: 711e 1bbe 1c4f adbd e533 763c 9ded 9ebc
000000b0: ba40 07bd 949d a6bd 07b4 a43b 9485 16be
000000c0: 1bb6 b63d b7d8 57bd b7b2 163c f7d3 c7bb
000000d0: 56df 20bd 6703 043b c4c2 17be 174b 4cbd
000000e0: de4f 55bc b980 90bd 8bca 7dbd 7a68 f63c
000000f0: 11d5 683d 0960 3ebe a21f 433d 7a09 aabc
00000100: 4693 e3bc 9956 78bd bc8f 89bd 9999 82bd
00000110: 16fa a7bd 41a8 30bd aa2b 10be 469f c8bc
00000120: 96ae 9f3c 4408 d1bc 8548 d53c 516a 36bc
00000130: 6370 82bd d628 053d 42ed 98bd 32d9 f7bc
00000140: 89d7 00bd ce10 d6bd 1ee3 4cb9 7fc9 9b3d
00000150: 112b 483d 383c 033c 3bc0 c3bd 669a 383d
00000160: 3b59 c53c 3cef 13be 1e5e 763b fd09 0ebc
00000170: fd73 5d3d c4c8 bbbd 16d7 01be 965d 4ebc
00000180: a6cd b5bd a866 fbbd 1e9f c6bc c58f e6bc
00000190: 82d6 c4bc bd16 2bbd 686c 9ebd ad66 e6bc
000001a0: 7001 d6bd e1f6 08bd 45a7 023c 96c1 80bd
000001b0: 3e37 73bc 77a7 4d3d 279f bfbb 3b69 9c3c
000001c0: d536 1fbe 1007 8f3c ce8b afbd f620 033c
000001d0: d1e2 e2bd 4ac9 e1bc 4275 9f3b c0ed 1f3d
000001e0: 1b7f 5ebc de73 2abe de1d acbd 476a 6abc
000001f0: 864b cd3c 44f7 95bd 6827 a13c e3d1 11bd
00000200: 6574 16be 966e 07bd ebae 3a3d d60f 833d
00000210: 6b07 a73b 1640 bd3d a6c3 d1bd 9436 6fbd
00000220: df89 0e3b 68ae 13bc 932b 46bc dfba b63d
00000230: 2ad7 1e3d 086d 08bd 3b34 77bd 5109 79bd
00000240: 50d3 33bc 097f 06be 1913 ffbc 45a5 3abd
00000250: 277c d4bc 83bd 19be 2a2e b13a 6bdd 4bbd
00000260: 82bc 94bd 6074 92bd 11bf d9bc 5d51 ef3c
00000270: 994d 473d 5270 dabd 42ae b7bd 287d 7a3c
00000280: 6bcc edbd 4ce6 6f3d 8e4e 383d a383 22bc
00000290: cc97 e63d d3df a4bc 237a 18be 7933 113d
000002a0: 5518 ad3d 0186 193d e5d6 e7bc 4fab a7bd
000002b0: f76d 9fbc f3d2 19be 6456 febd e433 8dbd
000002c0: e236 b2bd 3c2a c2bd f99d b6bd acb9 ffbd
000002d0: 1de2 bcbd 8599 3f3c f7b2 12bd bf55 edbd
000002e0: d6ed b13c 3467 da3c c6f9 f63c f396 54bd
000002f0: ba55 29be 08e8 27bd c4e7 2f3d 5a94 073d
00000300: 7138 a8bc 1ee8 3e3c 2561 10bd a0fd 98bd
00000310: 244a 113d a13d a8bc 6643 8abc 3dc5 6dbc
00000320: 5f9a 8b3d 837d 8ebd 17a9 e4bc 5e04 29bd
00000330: 3ce6 0c3d 8fbf 86bc 7995 e9bd bceb 863c
00000340: ae9c 9ebc a657 05bb 921f 5fbd 5ea6 05be
00000350: 1a55 f7bd 99b0 0bbe 5575 67bd 086f 79bd
00000360: c0a0 143d 98dd 65bb a80d febd 6547 8b3c
00000370: 2f2e efbd 7740 8d3c 5aee c63c 896f d23d
00000380: 6d04 3c3d d6cc 00be 8df5 0cbd b030 ea3c
00000390: 929e cfbc 38a9 32bd c398 21bd efd4 653d
000003a0: 5a2e edbd dc4a 6dbd b255 90bd 6ae0 81bd
000003b0: 3b4e c63c 0567 0e3d 50bf 10bd db9e a93c
000003c0: fb2c f33c 441d febd 1196 8b3d b5a5 57bd
000003d0: 42e2 0abe f766 c6bd e576 f03c baf0 6d3d
000003e0: 4037 923c 6396 6abd 3f63 51bd f4f7 f0bd
000003f0: 4acc 00be 62bf a0bd 5644 91bd b5f3 d13c
-0.06121775 -3.841893e-05 -0.04693872 0.025902528 -0.0006383172 -0.11599432 -0.033084225 0.036603443
0.028191645 0.04400585 -0.11245798 0.033313062 -0.09655903 -0.14027911 -0.13121247 -0.05180641
-0.05949623 -0.038321 -0.03804898 -0.17686771 -0.009874625 -0.080587044 -0.118618704 -0.009952807
-0.061506756 0.03856521 -0.036183883 0.01097438 0.064095154 -0.055674467 -0.012968437 -0.20737948
0.07226899 -0.12340006 0.05078812 0.0019380628 0.04258564 0.008442418 0.057703905 -0.14777239
-0.15148331 -0.084623545 0.015027021 -0.019400412 -0.033020712 -0.081355244 0.0050263437 -0.14699394
0.089214526 -0.05269691 0.009197882 -0.006098266 -0.03927549 0.002014363 -0.14820391 -0.0498763
-0.01301953 -0.07055802 -0.06196074 0.030079115 0.05684382 -0.18591322 0.04763759 -0.020756472
-0.027780186 -0.06062946 -0.06716868 -0.06376953 -0.08201997 -0.04312921 -0.14079157 -0.02449001
0.019492429 -0.025516637 0.026035557 -0.011133746 -0.06369092 0.032509647 -0.07467128 -0.030254934
-0.03145555 -0.10452424 -0.00019539564 0.07606792 0.048869196 0.008009963 -0.095581494 0.04506912
0.0240904 -0.1444673 0.003759272 -0.008669374 0.054065693 -0.091691524 -0.12679705 -0.012595555
-0.08877115 -0.122754395 -0.024245795 -0.028144727 -0.024028067 -0.04176973 -0.077355206 -0.028125132
-0.10449493 -0.033438567 0.0079744505 -0.062869236 -0.014844714 0.050208535 -0.00584783 0.019093147
-0.1554826 0.017459422 -0.085715875 0.008003464 -0.11078418 -0.027561802 0.004866273 0.039045095
-0.013580109 -0.16645762 -0.08404134 -0.014307565 0.025060426 -0.07322553 0.01967211 -0.035600554
-0.14692838 -0.033064447 0.04557697 0.06399505 0.00509732 0.09240739 -0.10242395 -0.05840166
0.0021749658 -0.00901375 -0.01209535 0.089223616 0.038779415 -0.033307105 -0.060352545 -0.0607999
-0.010975674 -0.13134398 -0.031137036 -0.04556777 -0.025938107 -0.15013699 0.0013517786 -0.049771708
-0.072625175 -0.07151103 -0.026580365 0.029213602 0.048657987 -0.10665955 -0.08968784 0.015288629
-0.11611255 0.058569238 0.04499679 -0.00991908 0.11259422 -0.020126259 -0.14890341 0.03544948
0.084519066 0.03748131 -0.028300712 -0.081869714 -0.019461615 -0.15021877 -0.124188215 -0.06894663
-0.08701874 -0.09480712 -0.0891685 -0.12486586 -0.09222815 0.011694317 -0.035815205 -0.115886204
0.021719854 0.02666054 0.030148398 -0.05190177 -0.16536608 -0.040992767 0.04294564 0.033100463
-0.020534726 0.011652021 -0.035248894 -0.0747025 0.035471097 -0.0205372 -0.016877841 -0.014512357
0.06816553 -0.06957533 -0.02791266 -0.04126393 0.034399256 -0.016448764 -0.11405463 0.016469829
-0.01936182 -0.0020346432 -0.054473467 -0.13051745 -0.12076779 -0.13641585 -0.05650838 -0.060896903
0.036286116 -0.0035074707 -0.124049485 0.017001817 -0.11678731 0.017242653 0.024283577 0.1027518
0.04590266 -0.12578139 -0.034413863 0.02858767 -0.025344167 -0.04361841 -0.039452326 0.056111272
-0.115811065 -0.05793272 -0.07047595 -0.06341632 0.024207225 0.034766216 -0.0353387 0.020705631
0.029684534 -0.12407926 0.06815732 -0.052648265 -0.13562873 -0.09687608 0.029353568 0.058090903
0.01784861 -0.057272326 -0.05112004 -0.11766043 -0.1257793 -0.078490034 -0.07093112 0.025628904

fc2.bias f4 [128]
00000000: 078a 8ebd 2ddd 8bbf a467 7ebe 3288 cebd
00000010: 7013 76be 3488 42be 98c7 2ebe f79a 983d
00000020: de99 e3bd 4a4e b63e 4165 84be e286 b2bd
00000030: eacd 4fbe 41e1 80bd 897e c13e 477e 94bd
00000040: c00b 78be e95f 92be 7167 62bf 88f1 823f
00000050: 0191 a5bf 4315 22bf 2b35 1d3e 0182 0bbe
00000060: 32dc 3abe 1ee8 fcbd c6a0 c4bd 690f ec3f
00000070: b34b b83e 9bac e8bd b6ce 973f b061 3cbe
00000080: 0657 e73e 25ad 11be fff4 f23f 546b 33be
00000090: af5e 57be 593f b2bf dc15 68bf 30fb 2cbe
000000a0: 8a18 b2bd 0cd8 08be 2ccb 1cbe 24e9 febd
000000b0: 7a29 42bd 27bb b5bd 4496 edbd 8d76 21be
000000c0: a3ee 4cbe f3c0 2fbf c466 13be cf01 19be
000000d0: 8afa b1be c7b0 32bd beab 07be bb92 03be
000000e0: b00e 8fbe 2f04 28bf 1acf abbd 789a 9abd
000000f0: 7220 a0be 5622 4bbd 9aa0 ecbd a0c0 cfbc
00000100: 0000 13bf 60d7 3abe 34d5 43bf bade 90c0
00000110: 55a6 08bf 3f0f 1ebd dca0 db3e 4b61 15be
00000120: 605e fbbd ba82 99bd 973a 91be ca04 6fbf
00000130: 316a a4bd 6021 b6bd 34b4 cdbd a4b6 4cbe
00000140: b8a5 9ebd e02f a0be e33b 93be 24db 00be
00000150: a095 cd3f 5174 6fbf fbca ccbc 2804 1fc0
00000160: 3b87 b8bf 7489 10be 67ca 373e 293b b4bd
00000170: b65f 6fbe 4a1c b33e f27f a5be 8cc6 68bf
00000180: 2cef 5fbe 23f0 94bd 1613 28be 5c31 f1bd
00000190: d4b0 04be ecb6 0cbf 0126 26be 1ac5 a4bf
000001a0: 9a57 00be e54d 14be 0419 cbbe 5ebc a9bd
000001b0: 0301 e4bd 366b 2dbe d45d 8cbd 39c9 63bf
000001c0: fb49 0dbf 4527 17be ba15 31be 3101 64be
000001d0: b11b 8cbd 5e92 05bf 965e 38be 0088 25bf
000001e0: 4230 1cbe c561 09be 3c6d d5bd d231 a0bd
000001f0: 6fe3 82bd f3ef 9ebd 88cd c8bd 52c2 b4bd
-0.069599204 -1.0926872 -0.24844223 -0.10084571 -0.24030852 -0.1899727 -0.17068326 0.07451432
-0.11113332 0.35606605 -0.258585 -0.08717133 -0.20293394 -0.06292964 0.3779185 -0.07250648
-0.24223232 -0.285888 -0.8843909 1.022996 -1.2934877 -0.6331369 0.15352313 -0.13623811
-0.1824806 -0.1234896 -0.096009776 1.8442203 0.35995254 -0.11361047 1.1859958 -0.1839664
0.4518358 -0.14226206 1.8981017 -0.17521411 -0.21032213 -1.3925582 -0.90658355 -0.16892695
-0.08696087 -0.13363665 -0.15311879 -0.12446812 -0.047402836 -0.08873587 -0.116009265 -0.1576788
-0.20012908 -0.6865379 -0.1439467 -0.14942096 -0.3476146 -0.04362562 -0.13249108 -0.12848942
-0.27940893 -0.65631384 -0.08389111 -0.07548994 -0.31274754 -0.049593292 -0.1155407 -0.025360405
-0.57421875 -0.18246222 -0.764972 -4.5271883 -0.533788 -0.03858876 0.42896163 -0.14587896
-0.1227386 -0.07495637 -0.28365013 -0.9336668 -0.08028067 -0.088930845 -0.10044137 -0.19991547
-0.07746452 -0.31286526 -0.28756627 -0.12583596 1.6061287 -0.9353686 -0.024999132 -2.4846287
-1.4416269 -0.14114934 0.17948304 -0.088003464 -0.23376355 0.3498252 -0.32324177 -0.9092796
-0.2186858 -0.07272365 -0.1641353 -0.11776993 -0.1295808 -0.54966617 -0.16225435 -1.2872651
-0.12533417 -0.1448284 -0.39667523 -0.08287881 -0.111330055 -0.16935429 -0.06853834 -0.88978916
-0.5519101 -0.14761074 -0.17293444 -0.2226608 -0.06841219 -0.52176464 -0.18004832 -0.64660645
-0.15252784 -0.13416202 -0.104212254 -0.078220025 -0.06391036 -0.077606104 -0.09804827 -0.08826126

fc3.weight f4 [1, 128]
00000000: 2e78 e73c 02e7 71bc 9ab6 16bc 73f7 68bb
00000010: 61d2 18bc cd2a d13c 71c0 e4bc 8da9 eabc
00000020: 9591 21bb 5ad9 49bd 0657 c6b9 2631 3cb8
00000030: 31c5 4d3b 6e2b 52bc 4dda 19bd 5d99 9e3b
00000040: 6820 19bc 9ba8 83bc 342d 32bc 01e5 f7bc
00000050: dcc0 2ebc cf26 05bc ec81 d23c 0cc2 ee3c
00000060: dc37 a43c 308a d5bc 6d31 d5b9 5513 f3bc
00000070: faf3 0dbd b76a 76bb 426b b1bc f5dd 86bc
00000080: db5e 963c e82b c5bc 948e b13b a028 dabb
00000090: 4b5b 8fbc 6320 86bd 868c 93b9 1cb5 10bc
000000a0: 6c36 ef3c 94d5 9abc 75ac 8dbc 92d7 603b
000000b0: 79e5 063b bef5 f7bb b074 48bd 4b05 933c
000000c0: 3493 fd3c 0b35 f8bc 042a 4abb c0cb 053c
000000d0: 1584 2cbd 4719 033c 43e7 3dbc a068 87bc
000000e0: f183 3fbc 6ba3 b7bc 780b b7bc a9f3 c6bc
000000f0: e0ec 623c 2670 1fbc 4c79 163c fe18 4a3d
00000100: 1b26 3a3c cc29 30bc 6236 93bc a9dc acbc
00000110: 318f b3bc ddc4 b03b 19c4 f63a dca3 e03b
00000120: 0a42 93bc 98f5 6cbb 2c2a cd3c ed32 173c
00000130: c22f 62bb c0ec 8ebc 61fa df3b d80e a93c
00000140: de91 e9bb b110 493a 9ab2 ab3d 2c83 c5bc
00000150: 7190 5e3c dd46 4ebd 280a b93c fbba 703b
00000160: 396c ddbc ec0b 723c 1ea7 79bc 6afe 28bc
00000170: 63fb 1c3d 2deb 92bc d9c4 94bc 72b2 9cbd
00000180: e6f2 c03c 83ed a13c dd16 bfbc 9a77 acbc
00000190: 757a 52ba 6a01 8dbd aad8 9a3c 8d52 58bb
000001a0: ffc8 00bd f96c 8d3a cf50 84bd 63d2 023d
000001b0: a576 883c 59f4 1abc db49 19bd 10d2 8ebc
000001c0: 791d ae3c caea 0dbc 2400 573c ed4d 623b
000001d0: aa13 3f39 2552 1f3c 991d 43bc 0dc1 a9bc
000001e0: ff4f 7d3c 55d2 173c 566c c93c 2aef c03b
000001f0: a63d 8c3c e4e1 45ba 38e1 903b 35b9 6cbb
0.028255548 -0.014764549 -0.009198809 -0.0035547882 -0.009327502 0.025533104 -0.027923794 -0.028645301
-0.0024653424 -0.04927955 -0.0003783034 -4.4868466e-05 0.0031398053 -0.012827737 -0.037561703 0.0048400597
-0.009346105 -0.016071608 -0.010875035 -0.030260565 -0.010666098 -0.0081269285 0.025696717 0.029145263
0.020046167 -0.02606687 -0.0004066335 -0.029672304 -0.034656502 -0.0037600228 -0.02165759 -0.01646326
0.018355777 -0.024068788 0.005418608 -0.006657675 -0.017499587 -0.06549146 -0.00028142723 -0.008832242
0.029200755 -0.01890067 -0.017294148 0.0034308177 0.0020583554 -0.0075671365 -0.048939407 0.01794686
0.030953981 -0.03029873 -0.0030847797 0.008166254 -0.04211815 0.008001632 -0.011590782 -0.016529381
-0.011689172 -0.022416791 -0.022344336 -0.024286108 0.013850421 -0.009731328 0.009184193 0.04934024
0.011361624 -0.010752153 -0.017970268 -0.021101313 -0.021918865 0.0053945617 0.0018826752 0.006855471
-0.017975826 -0.0036157127 0.025044523 0.00922845 -0.003451333 -0.017446876 0.0068352674 0.02063696
-0.0071279844 0.0007670029 0.08383675 -0.0241104 0.013584242 -0.05036055 0.02258785 0.0036732543
-0.027029144 0.01477335 -0.015237598 -0.010314563 0.03832568 -0.017934406 -0.01816027 -0.07651223
0.023553323 0.019766575 -0.023326332 -0.021053124 -0.0008029112 -0.06885035 0.018902142 -0.0033008188
-0.031441685 0.0010789923 -0.064607255 0.03193892 0.016658137 -0.009457671 -0.03742395 -0.01743415
0.021254288 -0.008661935 0.013122592 0.003453131 0.00018222505 0.009724175 -0.011908912 -0.020721937
0.015460967 0.009266456 0.024587791 0.0058878856 0.01711924 -0.0007548614 0.0044213794 -0.0036121134
